4.deeplearning/01.mlp/stage01/save_params/params.pth (torch, 952111 bytes, 14 tensors)

fc.0.weight f4 [256, 784]
000000 5f 2c a6 3c 9c 7e ad 3c d7 2f aa bb 03 fc ab 3a
       0.02028483 0.021178536 -0.0051936912 0.001312137
000010 59 59 9f 3b e1 75 89 3c 85 2d 0b 3c 84 f7 f5 3c
       0.004862946 0.016779842 0.008494739 0.030025251
000020 96 21 6a 3b 2a 86 93 bc 95 7c 2c ba e9 73 80 bc
       0.0035725585 -0.01800831 -0.00065798435 -0.01568027
000030 11 78 ba 3b 05 e3 eb bc 37 af e3 bc 7b 37 94 3c
       0.0056905826 -0.028794775 -0.02779351 0.018092861
000040 c6 82 c1 3c 3a 87 01 3b 8f 18 d7 3b d4 fa c2 bc
       0.023621928 0.001976444 0.006564207 -0.023801245
000050 31 6d 0e 3c 28 e4 f2 3c f4 b4 1e 3b 8c c8 11 3c
       0.008693025 0.029649809 0.0024216743 0.008897912
000060 5f 62 f5 bc 36 7d af 3c dc 6b 27 3b d5 c5 a4 bc
       -0.029954134 0.02142201 0.0025546467 -0.020113865
000070 fa 53 09 bd d1 86 31 bc d3 c4 26 bc 13 53 98 3c
       -0.033527352 -0.010835365 -0.0101787625 0.0185943
000080 90 71 97 bb e9 18 04 bd 11 4f e5 bb d3 10 b5 3c
       -0.004621692 -0.03225032 -0.006997951 0.022102749
000090 99 3d cf 3a 0c ad 2a 3d c3 7b 5a 3c f3 96 af 3c
       0.0015811204 0.041668937 0.013335171 0.021434283
0000a0 23 c4 8e bc 1d e2 4a 3c 97 77 4e bc c6 16 5e ba
       -0.01742751 0.012383011 -0.012601755 -0.00084720214
0000b0 34 07 1b bb ac 17 83 3c 11 24 ec 3c 72 35 1f bb
       -0.0023655416 0.016002499 0.028825792 -0.002429333
0000c0 25 8f 0a 3d 66 81 43 3c 24 cd 0d 3d fc 53 73 bc
       0.03382792 0.011932706 0.034619465 -0.014851566
0000d0 b1 f6 24 bc 46 9d a5 bc dc 5b 92 3c d6 b8 00 bd
       -0.010068581 -0.020216595 0.017866068 -0.031426273
0000e0 b4 7b a0 3c f1 a4 6a 3c b2 6e 29 3c ab 15 b4 bb
       0.019590236 0.014321552 0.010341333 -0.005495747
0000f0 10 68 aa bc a6 8e 83 bd 27 78 13 3d 9e 0e 2e 3c
       -0.020801574 -0.064236924 0.036003258 0.010623602
000100 c2 e4 ad 3c 7f ac 8e bc 85 2b 69 3c a2 55 15 3c
       0.021227244 -0.017416237 0.014231567 0.009114655
000110 55 d3 b6 3c 0f 24 1d bd 23 e3 d8 3c a4 4b 32 bd
       0.022317568 -0.038364466 0.026475495 -0.043529168
000120 f4 44 10 3b 39 e6 05 3c f0 fd 3f bb 5a c6 29 3c
       0.0022013756 0.008172565 -0.0029295646 0.010362232
000130 7d 24 9c 3c 47 aa a4 bc 41 be 83 3a fd d7 2c bb
       0.019060368 -0.020100726 0.0010051207 -0.0026373856
000140 af a1 95 bb c0 38 19 bd 58 3a 3c b9 28 4c 8c 3b
       -0.0045663933 -0.037407637 -0.00017950812 0.0042815395
000150 15 36 e8 bc 48 24 9a bb 6a f7 05 3d d4 aa 22 3d
       -0.0283461 -0.004704032 0.032706656 0.039713696
000160 6b 6f b5 3a 62 09 97 3a 8f 6c 33 bc 6f ab 61 3c
       0.0013842409 0.0011523182 -0.010951175 0.013773783
000170 b7 bf 65 bc d9 a1 be 3a 68 b4 b1 bc 91 bf 9a bc
       -0.014022759 0.0014544084 -0.02169247 -0.018890174
000180 4f 4f 1a bc 70 cc 52 3c b9 5a 1e 3c 1c 47 09 3d
       -0.009418323 0.0128661245 0.009665185 0.03351508
000190 f4 49 fa 3c bf 0a a3 bc 92 96 8b bb f0 cf 29 3d
       0.030552842 -0.019902585 -0.0042598927 0.04145807
0001a0 d1 49 b6 bc ad 84 91 3c f7 7d e4 bb 0b fd d8 bc
       -0.022251995 0.01776346 -0.006973024 -0.026487848
0001b0 54 9a c4 3c 17 01 2e bd 65 83 b4 bc b5 e3 f8 bc
       0.02399937 -0.042481508 -0.02203531 -0.030382017
0001c0 6a 0c f2 3c ed ca f5 bc 03 42 dd bb 5c cb 87 3c
       0.029546935 -0.03000399 -0.006752254 0.016576461
0001d0 29 d7 f3 3c a2 88 59 bd 38 97 2c bd 68 00 a5 bc
       0.029765682 -0.05310882 -0.0421364 -0.020141795
0001e0 a5 a4 ed 3c 30 2d ce ba 6b 63 8a bc d4 7f 6e bc
       0.029009173 -0.001573002 -0.01689311 -0.014556844
0001f0 e6 45 e4 3a af fe 09 3d 5d 9f 09 3c f1 69 87 3d
       0.0017415851 0.03369015 0.008399812 0.066120036
000200 33 62 89 3d bb 51 68 3d 4e 7e a5 3c 78 cb bc bc
       0.06708183 0.05671857 0.020201828 -0.02304624
000210 9d 91 a6 bb 2d f2 62 bd 2c 78 79 bd 29 30 94 bd
       -0.0050832764 -0.055406738 -0.06090562 -0.07235748
000220 90 34 5c bd e0 d8 96 bb 12 e8 b1 bc 60 66 9a 3c
       -0.053761065 -0.0046034902 -0.021717105 0.018847644
000230 f5 43 ed bc bc 88 52 3c 56 e0 34 3d 5d 25 35 bd
       -0.028963069 0.012849983 0.044159256 -0.044225086
000240 35 3a 94 bc a2 3a 40 bd b7 4b 50 bc 3b e2 04 bc
       -0.018094162 -0.046930917 -0.012713364 -0.008110578
000250 1b 3a 12 3d ae 9f 5d 3c eb 90 4f bd 3d 5f b1 bb
       0.035699945 0.01352684 -0.050675314 -0.0054129646
000260 e3 c7 9b 3c 2f 69 e6 3c b1 f2 b6 3c bd 9c 5c 3b
       0.019016212 0.028126327 0.022332521 0.003366276
000270 5a 31 00 3d ca 29 12 bb 88 86 81 bc 82 8d 07 bd
       0.031297065 -0.002230274 -0.01581122 -0.033093937
000280 3c a9 5b bc 8f e1 f9 bb 30 eb 00 bc 85 a8 e4 bc
       -0.013407048 -0.0076257656 -0.007868573 -0.027912388
000290 2a 7e 0a bd 33 a1 9d 3c ac aa 04 3d 9f a8 91 bc
       -0.033811726 0.019241905 0.032389328 -0.0177806
0002a0 f8 03 95 3c 86 af ea 3c e5 96 e5 bb 05 d4 fc b9
       0.018190369 0.02864815 -0.0070065134 -0.00048223152
0002b0 11 f3 3e 3c 65 7d 15 bd 89 c0 23 bd 84 8d c6 bc
       0.011654631 -0.03649654 -0.039978538 -0.024237402
0002c0 99 3e 8c bc df 64 11 bb b0 b9 c7 3b b0 e4 91 bc
       -0.017119693 -0.0022185368 0.0060951337 -0.017809242
0002d0 f1 20 a9 bc e2 37 17 3b 4e 84 ca 3c bf ad 89 3c
       -0.02064559 0.002307408 0.02472129 0.016806481
0002e0 59 91 88 bc ba 62 cf bc 00 9b d0 bc cb ad af 3c
       -0.01667087 -0.025315631 -0.025464535 0.021445176
0002f0 48 0e e3 bb 39 42 43 bd 1e fc 80 bd 71 35 25 bd
       -0.0069291927 -0.047670577 -0.062980875 -0.04033417
000300 3d f3 30 bd 21 2c 70 3c fd 5b 38 bc 3e a8 9b 3c
       -0.04320072 0.014658959 -0.0112524 0.019001123
000310 b1 27 cd 3c 23 a8 fe 3c 2b 78 67 3c b0 ea 7e bc
       0.02504334 0.031086033 0.014127771 -0.015558884
000320 b7 0c 99 bb 23 74 02 bd 3e 4f 24 bd e9 59 f7 3c
       -0.004670705 -0.031849038 -0.040114634 0.03019424
000330 e2 9a 32 bc bc 70 64 bc f3 59 83 3c 69 fe 14 bd
       -0.010901185 -0.013942894 0.016034102 -0.036375437
000340 43 63 a2 bc ee 41 25 3c c2 e9 1a bd a9 b6 02 3d
       -0.019822722 0.01008652 -0.037820585 0.03191248
000350 90 ca 25 bd 17 fa 9a bc 2d ed ca bb f5 99 ec bc
       -0.04047638 -0.01891808 -0.0061928243 -0.028882006
000360 fa 0c d2 3c e1 26 e8 bc 95 f9 3d 3c c2 47 d6 3c
       0.025640953 -0.028338851 0.0115951495 0.026157264
000370 0e 28 4d bc ab cd 18 3d 46 70 2e 3d f1 77 d5 3c
       -0.012521757 0.037305515 0.04258754 0.02605817
000380 d5 a0 14 3d 76 59 1b bd e1 13 26 3d 73 8d f3 bc
       0.036286194 -0.037927113 0.0405463 -0.029730534
000390 a8 bc 07 bd 53 39 20 bd 3d 7e 00 3c 6b a8 be 3c
       -0.0331389 -0.03911717 0.007842598 0.023273667
0003a0 59 45 8f 3c 88 71 67 bc eb 7b a9 3c 31 a7 b3 bc
       0.017489122 -0.014126189 0.020688972 -0.021930309
0003b0 87 04 8b bb 9e b5 31 3d eb fb 7d bc c5 bb dd bc
       -0.004242483 0.043386094 -0.015501956 -0.027067075
0003c0 09 61 6f bc 9c 21 88 bb 3e 68 9b 3c 91 6d 2b 3d
       -0.014610537 -0.004154397 0.018970605 0.041852538
0003d0 a5 29 25 3d a2 cb dc bc 7e 6e 64 3c af 0b 34 bc
       0.04032292 -0.026952568 0.013942359 -0.010989114
0003e0 c3 e7 4d ba 1d d4 ee 3c 91 9f 85 3d 68 ef 59 3d
       -0.00078546646 0.029153878 0.065245755 0.05320683
0003f0 f4 6f 96 3c 75 22 5a bc 94 c3 4f 3c 6a 72 28 bd
       0.01836393 -0.013313879 0.012680907 -0.04112474

fc.0.bias f4 [256]
000000 10 e6 d9 3c b6 7a 76 bc 89 9d 87 bc f5 81 0b bd
       0.02659896 -0.015043905 -0.01655461 -0.034059484
000010 fa 64 17 3d 36 2c fc 3c 4b 87 f3 bc fc 63 fb b9
       0.036961533 0.0307828 -0.029727599 -0.00047948945
000020 76 71 b0 bc 42 2f b9 bb 82 8b 28 bc a0 bf cb 3c
       -0.021538477 -0.0056513855 -0.0102871675 0.024871647
000030 1f a7 56 bc b3 fa 0f bd 79 94 af bb e5 4e de bb
       -0.013101368 -0.035151195 -0.0053582755 -0.0067843073
000040 bd ad a3 3c 2d 26 f5 3c 9e 68 5d bc 15 d2 47 bc
       0.019980306 0.02992543 -0.013513712 -0.012196084
000050 b4 66 9e 3b 81 5a f6 3c 6f f4 d3 bb ea d9 9f bc
       0.0048340205 0.030072453 -0.0064683477 -0.01951309
000060 05 92 0b bc 2f cf a7 bb c8 05 f1 bc a5 14 81 3c
       -0.0085187005 -0.0051211338 -0.029421702 0.015756914
000070 41 45 b7 3c 83 6e de 3c 50 d8 87 3c cc 6a 10 bd
       0.02237189 0.027152305 0.016582638 -0.0352581
000080 1a d7 7d 3c f5 85 0f bd aa 9a 89 3c 00 8b 67 3c
       0.015493179 -0.03503986 0.016797382 0.014132261
000090 49 82 be bc b9 c0 cb 3c 98 63 0c bd 14 09 ed 3c
       -0.023255484 0.02487217 -0.034274668 0.028934993
0000a0 a7 2e 9b 3b 42 1e ae bc 06 c4 9f bc 1a ab 9c 3b
       0.004735786 -0.021254662 -0.019502651 0.004781139
0000b0 a7 04 d1 3c af b7 89 bc cf 97 fa bb 54 9d b0 3c
       0.025514914 -0.01681122 -0.0076474915 0.021559395
0000c0 72 51 62 3c 2b 7f 79 bc a6 8e d2 3b 63 54 cb 3c
       0.013813363 -0.015228073 0.0064256964 0.024820512
0000d0 1f ac d5 bb 4b 24 f8 3c 9c db a4 bc 8e 11 93 bc
       -0.0065207626 0.030290743 -0.02012425 -0.017952707
0000e0 09 7a 0d bd 21 f9 ec bc 68 8c ca bc 41 4b 6e bc
       -0.03454021 -0.028927388 -0.024725154 -0.014544309
0000f0 e9 dc 03 bc 19 5d 40 3b a7 18 8f bc 99 9e 92 3b
       -0.008048275 0.0029352366 -0.01746781 0.0044744727
000100 6f 26 01 3d 13 06 b9 3c 42 89 0f 3d a5 ae 0a 3c
       0.031530794 0.022585904 0.03504301 0.00846449
000110 13 10 cd 3c eb 8c ba 3c 77 9d 08 3b b4 88 92 bc
       0.025032079 0.022772273 0.002084581 -0.01788745
000120 68 2f f6 3c c8 2e 12 3d ba 00 17 bd 6a 21 e4 3c
       0.030051902 0.035689145 -0.036865927 0.027847964
000130 2b e3 1d bb 23 f9 4c 3b 42 24 60 3c ba fa 73 3c
       -0.0024091701 0.0031276427 0.01368052 0.014891321
000140 6d 89 fa 3b 6e 83 06 3d 1c 1d 01 3d 94 71 ba 3c
       0.007645777 0.032840185 0.0315219 0.022759236
000150 e9 c0 89 bc a5 44 0c bd 80 79 a7 3c 80 92 d6 3c
       -0.01681562 -0.034245152 0.020443678 0.026192904
000160 f8 c6 b9 3c ae e7 23 bc 4f 72 15 bc e7 73 d2 bc
       0.022677884 -0.010003967 -0.009121492 -0.025690032
000170 10 f6 09 bd 8c e7 0e bd 7c 6d 54 3c d4 36 6a 3c
       -0.03368193 -0.03488879 0.012965556 0.014295299
000180 22 9c 4e 3c dd a8 a1 3b 35 07 4e 3c 5b 06 9e bb
       0.012610467 0.00493346 0.0125749605 -0.004822535
000190 a2 3f 04 bd 40 7d 07 3c 6a bf d4 3c a3 e5 82 bc
       -0.032287247 0.008269608 0.02597018 -0.01597864
0001a0 cc a8 f5 3a 8f d3 06 bd ff e1 a0 3c 8e 83 b4 bc
       0.0018742322 -0.0329166 0.019639013 -0.022035386
0001b0 1f bd 3d bc 68 37 d8 bc 1f ce 02 bd 5e 8c 7e bc
       -0.0115807345 -0.026393607 -0.031934854 -0.015536396
0001c0 fa 3f ef 3c 7e 34 4b bc 7f e8 f9 bc b8 90 2c ba
       0.029205311 -0.012402652 -0.03050637 -0.0006582844
0001d0 e3 a0 fc bc f8 eb 00 3d 45 55 6a ba 5f 44 da bc
       -0.030838436 0.031475037 -0.0008939098 -0.02664393
0001e0 ad db 21 bc b8 cb b7 3c fb 83 11 3d b5 90 2a 3c
       -0.009879035 0.022436008 0.035526257 0.010410477
0001f0 13 47 65 3c 0f bd e7 3c 0c 44 dd bc 8c a1 ac bc
       0.013993996 0.028288392 -0.027009986 -0.021073125
000200 9d ba f1 3c 65 77 25 3c 15 2d 3d bb f5 7c 0d bc
       0.02950793 0.010099267 -0.0028865982 -0.008635749
000210 3e 52 b0 3c d9 d6 0d bc 23 8d 8e 3c 8b 0f e1 bc
       0.021523591 -0.008657181 0.017401284 -0.027473232
000220 41 48 ea 3c 57 9d d4 bb 01 ac b1 3c 47 01 45 3c
       0.028598906 -0.006488483 0.021688463 0.01202423
000230 1d eb a1 bc 13 2a 05 3d 7c 76 fe bc 57 fe b3 3c
       -0.019765431 0.03251083 -0.031062357 0.021971865
000240 27 c3 9b 3c fc 22 d4 3c 02 b6 b5 bc f0 1f f3 3c
       0.019013954 0.025895588 -0.022181515 0.029678315
000250 97 51 28 3c c5 c1 34 3b d1 ce de bb 9a f0 b8 3c
       0.010273359 0.0027581316 -0.006799557 0.022575665
000260 2e 6b b1 bc 1f 42 9b bb 2d b5 c1 3c 0f d0 d2 bc
       -0.021657553 -0.004738107 0.023645962 -0.025733976
000270 a7 b1 c2 3c 81 df ce bc 53 10 d0 bc 3e 59 a5 3c
       0.023766352 -0.02525306 -0.025398409 0.020184156
000280 fc 91 0b bd cc 9b b1 3b 7d 4b 24 3c 54 31 37 bc
       -0.03407477 0.0054201838 0.010027763 -0.011181194
000290 62 d1 1c bc e2 ad 8a bc 5f 68 ac b9 8e a5 a1 bb
       -0.009571405 -0.016928617 -0.0003288416 -0.0049330657
0002a0 03 55 0e bd 69 21 c5 bc 7a c1 f0 3c 9a 85 0c bd
       -0.034749042 -0.024063783 0.029389132 -0.0343071
0002b0 5e 5e 46 bc 81 a0 0e 3d db 84 8c 3b 34 78 1a bc
       -0.01210746 0.034821037 0.0042882985 -0.009428073
0002c0 64 57 0e 3c 97 c7 e3 3a a6 07 04 3d 60 b1 ef bc
       0.008687828 0.0017378208 0.032233857 -0.029259384
0002d0 8d 35 88 3c 61 87 25 bc 37 a7 ab 3c d1 8c 92 bc
       0.016627098 -0.010103078 0.020953758 -0.017889412
0002e0 9b c5 8d bc 42 1a c7 3b 57 77 ea 3b ba bc 04 bd
       -0.01730614 0.006076128 0.0071553397 -0.032406546
0002f0 7c 47 9c bc 88 80 b1 bb 87 06 c8 3c 66 5a 76 3c
       -0.019077055 -0.0054169334 0.024417175 0.015036201
000300 56 c5 f8 bc e2 37 32 3a 75 4f ea bb 3e 8d 05 3d
       -0.030367535 0.00067984883 -0.0071505853 0.032605402
000310 5e cd d2 3c 53 df 87 ba fa d0 8a 3c 13 e1 42 bc
       0.025732692 -0.0010366238 0.01694535 -0.011894482
000320 39 1b 00 3d 5a 1c f5 bc 00 ce a4 bb 63 21 92 3c
       0.03127596 -0.029920746 -0.00502944 0.017838186
000330 2a 83 39 3b 53 7a 0c bd 5a 78 b7 bc a8 22 84 bc
       0.002830694 -0.034296345 -0.022396255 -0.016129807
000340 64 6f 14 bc aa 7d b9 bc 8c a4 85 bc 75 42 d3 3c
       -0.009059761 -0.02264293 -0.016313814 0.025788525
000350 0b d0 36 bc 55 ec 80 bb f0 a3 7b bb ca ea 3b 3c
       -0.011158 -0.003934423 -0.0038397275 0.011469552
000360 f2 31 96 3c aa f7 3a ba 34 89 f8 3a d8 40 b5 ba
       0.018334363 -0.0007132242 0.0018961788 -0.0013828529
000370 47 a1 10 3d 78 9f 3a 3c be 2d f1 bc b8 34 10 bd
       0.035310056 0.011390559 -0.029440757 -0.035206527
000380 11 c5 a7 3c 87 28 1b ba 82 55 f7 3c 7a d2 66 bc
       0.02047971 -0.000591882 0.03019214 -0.014088267
000390 86 c5 94 3c 95 8a 31 3c ef 09 6c bb 85 66 ff bc
       0.018160593 0.010836263 -0.0036016663 -0.031176815
0003a0 a0 20 93 3c 7f cb 6e bc c5 e2 c8 bc 53 c4 c9 3c
       0.017959893 -0.014574884 -0.024522195 0.024629747
0003b0 e2 66 f6 3c 48 71 33 bb c9 b4 c4 3c e6 17 cc bc
       0.030078355 -0.0027380753 0.024011986 -0.02491374
0003c0 26 d5 92 3c e2 2c d9 3c 0f c6 56 3c e5 6e e3 bc
       0.017923903 0.02651066 0.013108744 -0.02776284
0003d0 85 96 03 bd 6e 54 50 3c 94 14 7e bc 74 56 60 bc
       -0.03212597 0.012715442 -0.015507836 -0.013692487
0003e0 6f 31 c1 bc a0 9d e9 3c c4 a0 5c 3b 22 87 ce 3c
       -0.023583142 0.028517544 0.003366516 0.02521092
0003f0 a0 63 98 bc dc 9f 5d bc 4b 91 81 3c d6 08 91 bc
       -0.018602192 -0.013526883 0.015816351 -0.017704409

fc.1.weight f4 [256]
000000 a6 3c 71 3f 94 d2 7b 3f b1 2f 82 3f 79 77 7f 3f
       0.9423317 0.9836819 1.0170804 0.99791676
000010 32 87 80 3f 25 29 80 3f fe 17 80 3f e2 94 81 3f
       1.0041258 1.0012556 1.0007322 1.012356
000020 24 b0 77 3f f2 0d 7d 3f e9 1a 7b 3f fc 68 81 3f
       0.96753144 0.98849404 0.98087937 1.0110164
000030 d4 3b 81 3f ec 6e 7e 3f bb 03 80 3f 39 84 71 3f
       1.0096383 0.99388003 1.0001138 0.9434238
000040 ba 43 80 3f fa 2a 77 3f d5 8c 7c 3f 78 c5 80 3f
       1.0020669 0.9654995 0.9865239 1.0060263
000050 f4 9e 7a 3f 7c 49 75 3f 69 15 7d 3f 71 97 79 3f
       0.97898793 0.95815253 0.98860794 0.97496706
000060 d5 24 86 3f e9 39 72 3f e9 77 85 3f 23 2d 7f 3f
       1.047999 0.94619614 1.0427219 0.9967825
000070 1a d0 80 3f 3f 0b 7d 3f 9c 13 80 3f 63 4b 76 3f
       1.0063508 0.98845285 1.0005984 0.9620878
000080 46 68 7e 3f b2 36 75 3f 9b e1 75 3f 9f 51 83 3f
       0.9937786 0.95786583 0.9604737 1.0259284
000090 8f 17 7d 3f 43 f4 83 3f ba b9 7d 3f 33 98 7b 3f
       0.9886407 1.0308918 0.9911152 0.9827911
0000a0 66 63 7f 3f a2 00 80 3f ad ae 80 3f 2e 17 87 3f
       0.99761045 1.0000193 1.0053307 1.0553949
0000b0 95 c0 7f 3f 3f 27 81 3f 4c 29 81 3f 34 4f 72 3f
       0.9990323 1.0090102 1.0090728 0.94652104
0000c0 3a 85 77 3f c6 71 80 3f f4 f7 79 3f 46 80 7e 3f
       0.9668766 1.0034721 0.9764397 0.9941448
0000d0 ed e7 81 3f 94 2a 7c 3f 06 ab 7e 3f 34 b3 80 3f
       1.0148903 0.9850247 0.9947971 1.0054688
0000e0 cf 40 7e 3f 2e 0c 7c 3f 6f 49 7e 3f e7 bc 81 3f
       0.9931764 0.98456085 0.993308 1.0135773
0000f0 2a e1 84 3f cc cf 85 3f 4a aa 74 3f 81 4f 7f 3f
       1.0381215 1.045404 0.9557234 0.9973069
000100 7f e1 73 3f 65 bc 7e 3f b5 78 7a 3f 90 fa 84 3f
       0.95265955 0.9950622 0.97840434 1.0388966
000110 80 47 7e 3f 77 44 82 3f 84 c4 85 3f 66 c9 7a 3f
       0.9932785 1.0177144 1.0450597 0.9796356
000120 cd 5c 7e 3f d2 e6 7a 3f e8 8b 7e 3f c2 67 79 3f
       0.9936035 0.98008454 0.9943223 0.97423947
000130 a4 f3 80 3f f2 6e 89 3f 15 d1 7f 3f 9c 8d 84 3f
       1.0074353 1.0736983 0.9992841 1.0355716
000140 5e ac 81 3f df 04 7f 3f 79 8c 7b 3f d0 cf 78 3f
       1.0130727 0.9961681 0.9826122 0.97192097
000150 f9 d4 81 3f a3 a1 74 3f 8e 7a 7d 3f a4 db 82 3f
       1.0143119 0.9555914 0.9901513 1.0223279
000160 c1 4c 7b 3f 61 cd 81 3f 4c 0c 7f 3f 87 6f 7f 3f
       0.9816399 1.0140802 0.9962814 0.9977955
000170 5f 1e 77 3f ab a9 78 3f 32 84 86 3f 85 e8 7c 3f
       0.9653072 0.9713389 1.0509093 0.98792297
000180 ad 05 7b 3f 3c 71 77 3f ff d1 7e 3f 1b 6c 84 3f
       0.98055536 0.96657157 0.9953918 1.0345491
000190 73 87 76 3f 39 a2 7c 3f a7 79 76 3f c9 9e 7e 3f
       0.9630043 0.9868503 0.96279377 0.99461037
0001a0 8b 17 7d 3f 06 fd 7f 3f 1c e4 7e 3f 96 91 83 3f
       0.9886405 0.9999546 0.9956682 1.0278804
0001b0 32 58 83 3f a2 cd 7e 3f 81 71 75 3f 8b a2 80 3f
       1.026129 0.9953252 0.9587632 1.0049604
0001c0 b4 d6 7e 3f fe eb 6e 3f e2 bf 71 3f 61 27 7a 3f
       0.9954636 0.93328846 0.94433415 0.9771634
0001d0 5d 57 7f 3f 25 14 81 3f 0b 67 80 3f e1 6f 79 3f
       0.9974268 1.0084273 1.0031446 0.9743634
0001e0 be aa 7c 3f 5b 4f 7b 3f 71 69 7d 3f 55 8f 7d 3f
       0.9869803 0.9816796 0.98989016 0.9904683
0001f0 3b 59 7c 3f 3d 5e 7e 3f f6 e8 70 3f 46 ff 73 3f
       0.98573655 0.99362546 0.9410547 0.9531139
000200 0e aa 7a 3f f4 83 7c 3f cd 5c 7c 3f 4c 78 81 3f
       0.9791573 0.98638844 0.985791 1.0114837
000210 35 9f 81 3f c6 23 82 3f fa 23 82 3f c3 0d 7b 3f
       1.0126711 1.0167167 1.0167229 0.98067874
000220 27 3d 81 3f eb 02 7f 3f fc 4a 7c 3f 94 1e 71 3f
       1.0096787 0.9961383 0.9855192 0.94187284
000230 b9 01 83 3f a4 a1 84 3f 92 13 7e 3f 5b fb 7b 3f
       1.0234901 1.0361829 0.9924861 0.98430413
000240 e8 43 7d 3f 84 c1 80 3f d9 fb 7e 3f ea 55 7c 3f
       0.9893174 1.0059056 0.9960304 0.98568594
000250 b1 91 7e 3f 48 b8 81 3f 32 f7 81 3f 49 62 89 3f
       0.9944106 1.0134363 1.0153563 1.0733119
000260 b7 5e 78 3f 70 0f 7d 3f 2c e4 72 3f 69 41 78 3f
       0.97019523 0.9885168 0.9487941 0.9697481
000270 50 1b 77 3f ae 75 76 3f f0 aa 7b 3f ff ec 81 3f
       0.9652605 0.96273315 0.98307705 1.015045
000280 d4 40 82 3f cd b6 7d 3f b5 54 71 3f ee 3f 79 3f
       1.0176034 0.99107057 0.9426988 0.97363174
000290 ef 88 7f 3f c4 57 81 3f 6f a4 79 3f a8 81 81 3f
       0.9981832 1.0104909 0.9751653 1.0117693
0002a0 1e c4 7f 3f cb 5e 79 3f 77 fa 84 3f 6b 44 7a 3f
       0.99908626 0.9741027 1.0388936 0.9776065
0002b0 20 c7 82 3f 1d 26 76 3f bc 1a 7f 3f 59 9a 84 3f
       1.0217018 0.96151906 0.9965017 1.0359603
0002c0 16 69 73 3f e1 11 76 3f 15 f7 79 3f c2 be 7f 3f
       0.95082223 0.9612103 0.9764264 0.9990045
0002d0 3a 97 78 3f a3 79 83 3f e2 f0 75 3f 42 8d 74 3f
       0.97105753 1.0271496 0.96070683 0.9552804
0002e0 cf 23 7f 3f 04 0b 7f 3f 47 77 7e 3f 3f 0a 7e 3f
       0.99664015 0.99626184 0.9940075 0.99234384
0002f0 e2 08 7a 3f 07 2d 82 3f 41 78 83 3f 2e a8 82 3f
       0.97669804 1.0169991 1.0271074 1.0207574
000300 38 89 79 3f ba 00 7e 3f 9f 19 7f 3f ec c6 7f 3f
       0.97475004 0.9921986 0.9964847 0.99912906
000310 22 7b 7d 3f 4d f4 85 3f c6 c1 82 3f 40 96 86 3f
       0.9901601 1.046518 1.0215385 1.0514603
000320 b4 d1 80 3f 54 56 85 3f 39 39 79 3f 2f b2 7b 3f
       1.0063996 1.041697 0.9735294 0.9831876
000330 1b f7 78 3f 3f 17 7f 3f f8 f1 84 3f e8 4a 80 3f
       0.97252053 0.99644846 1.0386343 1.002286
000340 14 fd 7e 3f 37 03 7b 3f b9 47 7a 3f 9b a4 7b 3f
       0.99604917 0.9805178 0.9776569 0.98298043
000350 12 93 79 3f 94 9c 7a 3f ea 41 80 3f 67 ca 7f 3f
       0.97490036 0.9789517 1.0020115 0.99918216
000360 7f 41 81 3f d5 63 82 3f dc ed 7c 3f 2d 89 79 3f
       1.0098113 1.0186716 0.98800445 0.9747494
000370 4e e1 77 3f 41 6e 78 3f 24 cd 7b 3f 9e 43 82 3f
       0.9682816 0.97043234 0.98359895 1.0176885
000380 77 8a 7b 3f 65 f3 79 3f 5f 6f 79 3f 30 a9 7d 3f
       0.98258156 0.97637016 0.97435564 0.99086285
000390 36 90 7b 3f e5 da 72 3f fc 84 7b 3f b7 cb 7f 3f
       0.98266923 0.94865257 0.98249793 0.9992022
0003a0 84 03 78 3f 89 3c 83 3f 13 0e 80 3f a8 0a 77 3f
       0.96880364 1.0252849 1.0004295 0.96500635
0003b0 ea 88 7a 3f ac 32 75 3f 93 6c 78 3f 10 4e 85 3f
       0.97865164 0.95780444 0.9704067 1.0414448
0003c0 4b 37 7d 3f 01 11 7a 3f 84 d4 7b 3f 46 56 77 3f
       0.98912495 0.97682196 0.9837115 0.9661602
0003d0 c0 1a 7a 3f ce 12 82 3f 00 9d 76 3f c7 56 81 3f
       0.9769707 1.0161989 0.96333313 1.0104607
0003e0 f1 c1 7f 3f 95 ce 80 3f 2a 11 7e 3f ea a6 83 3f
       0.99905306 1.0063044 0.9924494 1.0285313
0003f0 93 34 81 3f 81 65 83 3f 5a 4c 7e 3f be f3 80 3f
       1.0094169 1.0265352 0.99335253 1.0074384

fc.1.bias f4 [256]
000000 38 8e 8f bd 99 df 91 bd 57 b9 77 bd 09 6e 52 bd
       -0.07009548 -0.07122726 -0.06047949 -0.05137447
000010 41 e3 a9 bd 99 00 53 bb f9 55 68 bd e4 78 d8 bc
       -0.08295298 -0.00321964 -0.056722615 -0.026424833
000020 4d e4 52 bd 72 55 0c bd 03 cd 48 bd 53 2a 86 bc
       -0.051487256 -0.034261174 -0.04902364 -0.016377604
000030 13 92 22 bc d5 9b a1 bd e3 2d 8a bd 25 d5 81 bd
       -0.009922522 -0.07891051 -0.067470334 -0.06339482
000040 c5 82 26 bd 6d a4 59 bd af 28 e3 bc 80 e7 3d bd
       -0.040652055 -0.053135324 -0.02772936 -0.046363354
000050 84 8d 44 bd ca 8f ab bc c4 c1 a0 bd 30 ca 5d bd
       -0.047986522 -0.020942587 -0.07849458 -0.0541479
000060 d4 0e 96 bd 1b 76 96 bd f1 a8 da 3b 2b 34 89 bd
       -0.07327047 -0.073467456 0.0066729714 -0.066994034
000070 5f 10 96 bd 2d d0 5c bd 3d 53 79 bd 95 35 80 bd
       -0.07327341 -0.05390947 -0.060870398 -0.0626022
000080 71 48 ff 3c 47 51 3b bd 78 f1 49 bd e8 5c 26 bd
       0.031162472 -0.04573181 -0.04930255 -0.040615946
000090 84 7e e1 bc 0d 97 08 bd 81 99 1c bc 40 29 2f bd
       -0.027526148 -0.03334718 -0.009558083 -0.04276395
0000a0 55 8e 42 bc 42 9d 86 bd 88 ab 4d bc 64 6d 58 3a
       -0.011874755 -0.06572963 -0.012553103 0.00082560466
0000b0 81 48 93 bd 6d c0 16 bd de 56 1c bd df f8 7a bd
       -0.071915634 -0.036804605 -0.03816878 -0.0612725
0000c0 ac 9f 09 bd 5f e3 57 bd dc f0 b3 bd 44 f5 66 bd
       -0.03359954 -0.052707072 -0.08786175 -0.056386247
0000d0 3b e9 c5 bc 94 d0 1d bc 86 f8 aa bd c7 65 47 bd
       -0.024159065 -0.009632248 -0.08348183 -0.048681047
0000e0 2d 7c 5a bd 40 e5 0d 3b d0 9b 2a bc 46 18 2d bd
       -0.05334108 0.0021651536 -0.010413125 -0.042259477
0000f0 db 68 b5 bc 44 c2 79 bc e6 0d 6d bd 9a 01 86 bd
       -0.022144726 -0.01524407 -0.057874583 -0.06543274
000100 4d 94 41 bd 7b b2 5e bd f8 a9 39 bc 7f 15 b5 bc
       -0.04726057 -0.05436943 -0.011332028 -0.022104977
000110 56 cb 26 bd c3 1c 7f bd 44 90 5b bd 7b 3d b7 bd
       -0.04072126 -0.06228329 -0.05360438 -0.08947273
000120 f5 0c ae bd 1d c0 62 bd 86 00 20 bd 52 2a 03 bd
       -0.08498565 -0.055358995 -0.039063 -0.03202278
000130 ba 89 6e bd 2c f4 81 bd b3 4c 24 bd 4c 53 6d bd
       -0.058236815 -0.063454 -0.04011221 -0.057940766
000140 04 95 30 bd 7d e2 84 bd 33 5c 1e bd 05 67 a8 bd
       -0.043110862 -0.06488512 -0.038662147 -0.082227744
000150 c7 1f ff bb 8b db 4c bd f1 2b 44 bd 41 ab 24 bd
       -0.0077857706 -0.05001406 -0.04789347 -0.040202383
000160 a9 57 55 bd 49 9a aa bd fa 18 89 bd 1f 4d 5f bc
       -0.052085552 -0.08330209 -0.06694217 -0.013629227
000170 66 c3 fe bd c0 9d 84 bd e8 c1 20 bd fa da a3 bd
       -0.12439613 -0.06475401 -0.039247423 -0.08000751
000180 98 66 94 bc 5d c9 85 bd 84 18 92 bd 0f 03 ae bc
       -0.018115327 -0.065325476 -0.07133582 -0.021241693
000190 25 1d 17 bd b7 da 12 bd ee 39 0a bc 64 60 8a bc
       -0.03689303 -0.035853114 -0.008436663 -0.016891666
0001a0 43 05 f0 bc 94 5d ce bc 33 39 36 bd c8 be 0f bd
       -0.029299384 -0.025191106 -0.044488143 -0.035094053
0001b0 c1 ee 56 bc fc 48 3e bc 75 ca 05 bd 84 78 a5 bc
       -0.013118447 -0.0116140805 -0.03266378 -0.020199068
0001c0 42 99 82 bd 74 68 2b bd 23 2a 66 bd 3b 47 29 bc
       -0.06376888 -0.04184766 -0.05619253 -0.010331924
0001d0 1b 90 80 bd 5a c0 89 bd 62 e4 11 bd 82 b9 ee bc
       -0.06277486 -0.06726141 -0.035618193 -0.029141191
0001e0 f7 62 ab bd df a4 08 bd e8 ec 92 bd b2 ed f4 bc
       -0.083684854 -0.03336036 -0.071740925 -0.029898498
0001f0 a7 4e 8f bc 69 34 0f bd 63 59 88 bd 1a 3f 98 bd
       -0.017493559 -0.03496209 -0.06657674 -0.07433911
000200 e5 ef c7 bc 49 bc 35 bd be d1 36 bd 74 34 c8 bc
       -0.024406383 -0.044369016 -0.04463362 -0.024439074
000210 b3 ec f0 3a d6 6d b2 bc 1c 15 48 bd cd a1 47 bd
       0.0018381089 -0.02178089 -0.048848256 -0.04873829
000220 13 f6 1c bd f1 e3 5c bd 21 83 ba bc f2 75 07 bd
       -0.038320612 -0.05392832 -0.022767605 -0.033071466
000230 0f 5e 82 bc 9e 38 53 bd ec 7c 77 bd 17 33 12 bd
       -0.015913991 -0.051567666 -0.06042187 -0.035693254
000240 86 25 58 bd fc 82 2c bc e6 60 79 bc 90 1c d6 bc
       -0.05277016 -0.010529276 -0.015220856 -0.026136667
000250 e4 60 7e bd 6c 56 12 bd ea b4 85 3c ba 0a a2 3c
       -0.06210412 -0.03572695 0.016321618 0.019780505
000260 a6 fe 5d bd f7 3b 5f bd 08 10 b8 bc ad 08 55 bd
       -0.05419793 -0.054500546 -0.022468582 -0.052010227
000270 36 1b 59 bd 19 fa 94 bd 12 fd a6 bc 93 42 ab bc
       -0.053004466 -0.07274265 -0.020384345 -0.020905768
000280 45 7a ee bc d8 18 05 bd 10 0d 2b bd 63 4f 0a bd
       -0.029111037 -0.032494396 -0.041760504 -0.033767115
000290 7c a5 2a bd df 7e 47 bd fd 61 96 bd 0f eb 08 bd
       -0.041661724 -0.048704978 -0.073429085 -0.033427294
0002a0 5a 90 34 bc 46 1c 2b bd 16 41 7b bd ef 93 43 bd
       -0.011020744 -0.04177501 -0.061341368 -0.047748502
0002b0 58 a0 37 bd e9 86 7a bd b8 15 bd bd 71 7e 48 bd
       -0.04483065 -0.061163817 -0.09232658 -0.04894871
0002c0 fc 75 91 bd 03 a5 18 bd 19 3b 26 bd 0a 06 ae bd
       -0.07102582 -0.037266742 -0.040583704 -0.084972456
0002d0 a5 20 a5 bb 89 e8 36 bd c6 de 20 bd aa 80 48 bd
       -0.005039292 -0.044655357 -0.039274953 -0.04895083
0002e0 03 e3 1f bd c0 18 7a bd 72 36 3e bd 37 71 30 bc
       -0.039034855 -0.06105876 -0.04643864 -0.01076918
0002f0 16 5c 2a bd a0 2d 2f bc da 07 52 bd 16 f5 59 bd
       -0.041591726 -0.01069203 -0.05127702 -0.053212248
000300 97 fc 50 bd 40 cb f8 bc 92 25 54 bd 1f 71 80 bd
       -0.05102214 -0.030370355 -0.051793642 -0.06271576
000310 0c a2 85 bd 05 a7 d3 3c 0d 68 b5 ba 7f e5 9c bd
       -0.065250486 0.025836477 -0.0013840214 -0.076609604
000320 02 be 84 bd 4a 44 3a bd e2 f4 3f bd cd 91 2c bd
       -0.064815536 -0.04547528 -0.046864398 -0.042131234
000330 b3 e6 31 bd 9f a2 80 bd af 58 da 3b 4d 57 3e bd
       -0.043432903 -0.062810175 0.006663404 -0.046469975
000340 21 60 4c bd 73 27 b3 bc 1f 24 42 bd 39 f4 48 bc
       -0.049896363 -0.021869397 -0.04739773 -0.0122652585
000350 5e 6b 1b bd c6 50 61 bd 4b f2 21 bd 65 d3 f2 bc
       -0.03794419 -0.055008672 -0.03953771 -0.029641816
000360 04 62 54 bd 38 7d 63 bd bb 7f bd bb 30 d3 d9 bb
       -0.051851287 -0.05553934 -0.005783049 -0.00664749
000370 87 9a d8 bd d5 0a 87 bd bf 32 e7 bc cc da 36 bd
       -0.10576349 -0.06593863 -0.02822244 -0.044642255
000380 ce 1f 3e bd 99 73 59 bd 01 2f 35 bd 83 5a 96 bd
       -0.04641705 -0.05308876 -0.04423428 -0.073414825
000390 27 1f b4 bd 59 9d 8a bd 7e d1 48 bd 55 bd cd bc
       -0.08795004 -0.06768293 -0.049027912 -0.025114695
0003a0 e1 25 5d bd 12 a7 89 bc 52 d8 6b bd 2d 08 82 bd
       -0.053991202 -0.016803298 -0.057579346 -0.06349216
0003b0 80 ff 6d bd 6c 22 59 bd ab 10 8e bd 4e 9a 36 bd
       -0.058104992 -0.053011343 -0.06936773 -0.04458075
0003c0 64 7f 4f bd c5 95 17 bd f5 2f 91 bc ac 40 2b bd
       -0.0506586 -0.037008066 -0.017723063 -0.041809723
0003d0 db 6c 7a bd b3 00 1c bd 0a 53 41 3c f7 2f d2 bc
       -0.06113897 -0.038086604 0.011799583 -0.025657637
0003e0 d8 3e 52 bd 69 bf 3f 3b 46 35 52 bd 23 b1 10 bd
       -0.051329464 0.0029258376 -0.051320337 -0.03532518
0003f0 fe 0d 88 bd 22 c6 f3 bc cb a1 84 bd 7d 8d d9 bc
       -0.06643294 -0.029757563 -0.06476172 -0.026556725

fc.1.running_mean f4 [256]
000000 f2 35 4c 3f 8c d1 51 3f 2a 6d 10 40 04 12 cb bf
       0.79769814 0.8196037 2.2566628 -1.5864873
000010 cc 05 79 40 0e 2d af bf 4d d0 70 40 26 94 3a 3e
       3.8909788 -1.3685625 3.7627137 0.18220577
000020 e3 28 3b bf 2b 5d 14 bc 90 96 66 3f 7c 1a ad 3f
       -0.73109263 -0.009055416 0.9007349 1.3523707
000030 ba aa f0 3f 92 17 3c 40 86 39 d7 be e8 4b 26 40
       1.8802102 2.9389386 -0.42036074 2.598383
000040 61 ae 67 3f e7 25 ed 3f f6 a7 43 40 de d1 f3 3f
       0.90500456 1.8527192 3.0571265 1.9048421
000050 f9 98 88 be 89 df 97 3e c7 d9 64 bf 04 73 a9 3f
       -0.2667921 0.2966273 -0.893948 1.3238225
000060 c4 c4 0b c0 23 49 c6 3f dd c1 2f bf 36 a8 5e be
       -2.1838846 1.549107 -0.68655187 -0.21743855
000070 d0 9b 50 40 01 9d df 3f 5b fb 5c bf 72 af 9c 3e
       3.25951 1.7469789 -0.8632104 0.30602604
000080 69 e8 84 3f d7 65 7c bf 5a 99 8f 3f 73 2d 01 be
       1.0383426 -0.98592895 1.1218674 -0.12614994
000090 d3 ee de be 64 4e 0d 40 3e d8 06 3f 9a 5e 92 3e
       -0.43541583 2.2079096 0.5267371 0.285878
0000a0 e4 80 8b 3f 63 9d 91 bf 0b 05 bd be e3 4c 2f bf
       1.0898709 -1.1376156 -0.3691791 -0.68476695
0000b0 de 39 93 3f a3 ae 8c 3c d7 37 42 40 32 27 9c bf
       1.1502035 0.017173117 3.0346582 -1.2199461
0000c0 9c de d3 3f 6c 74 19 3f be ba de 3d 0b dc df 3f
       1.655231 0.5994327 0.10875462 1.7489027
0000d0 45 ab 9f 3f 46 13 c1 3f 40 5c 5a 3f 58 fb 14 40
       1.2474142 1.5084007 0.8529701 2.3278408
0000e0 14 a2 39 be e9 26 f1 3f de 32 72 3f 74 3a 17 40
       -0.18128234 1.884 0.9460887 2.3629427
0000f0 31 94 89 bf 79 99 34 be 71 3e a6 3e bb 7a b4 3f
       -1.074835 -0.1763667 0.32469514 1.4099954
000100 f7 0b b1 bb ff 81 1d 40 1a 6a c8 3f a6 c7 98 bf
       -0.0054030376 2.4610593 1.565738 -1.1935928
000110 bd 76 36 3f b4 dc a0 bf 5a e4 82 3e b0 6c d1 3e
       0.7127493 -1.2567353 0.25564843 0.40903234
000120 99 75 88 40 30 f3 c1 bf 8b 35 0e 40 7a 5b 1a 40
       4.264355 -1.515234 2.222018 2.4118333
000130 e9 f8 79 3f 38 01 ec 3f d6 70 66 40 87 94 3d c0
       0.9764543 1.8437872 3.600637 -2.9621904
000140 10 45 34 40 be c7 d7 3f 09 26 c6 3f 6a 78 4d 40
       2.8167152 1.6857831 1.5480357 3.2104745
000150 ae 85 47 40 91 dc bd 3f 03 f6 60 3f 52 22 97 40
       3.1175342 1.4832937 0.87875384 4.7229395
000160 5e 50 d7 bf 40 6f 1f 40 ef a4 10 40 06 85 ab 40
       -1.6821401 2.4911652 2.2600667 5.359988
000170 21 ca 95 3f 6c 6e 3a 40 10 87 97 3e db 99 8a 3f
       1.170231 2.9129896 0.29595232 1.0828203
000180 3f 50 05 c0 c7 a8 2b 40 8d 0f 38 3f 94 0e 8f 3f
       -2.0830228 2.6821764 0.7189873 1.1176324
000190 fd 11 b7 3f 39 59 a3 3e af f9 f3 3f fc 06 68 40
       1.4302365 0.3190401 1.9060572 3.6254263
0001a0 a5 f4 87 3f cf d1 25 40 27 f0 bb 3f 80 02 b2 3d
       1.0621535 2.5909307 1.4682664 0.08691883
0001b0 4e 96 e3 3f 77 aa 96 3e 81 c8 10 40 61 79 a9 3e
       1.7780244 0.2942693 2.2622378 0.33100417
0001c0 a7 92 a9 3d 3f 7c 85 3f 93 4d 05 3f fd 9a a0 40
       0.08279925 1.0428542 0.52071494 5.0189195
0001d0 c4 46 31 3d 4d e1 30 c0 23 59 e2 3d c1 ea 45 3f
       0.043280378 -2.7637513 0.11052158 0.7731133
0001e0 24 9b 47 3f 5e 33 0f 40 c5 eb a9 be 90 18 b2 3e
       0.779711 2.2375102 -0.3318769 0.34784365
0001f0 36 26 af 3f 91 2d 7c 3d 35 9a 4a 3f 11 19 a8 3f
       1.3683536 0.061566893 0.7914155 1.313265
000200 d4 24 08 40 80 77 7b c0 a8 fe 34 be b2 95 0f 40
       2.1272478 -3.9291687 -0.17675269 2.2435117
000210 57 ce 18 3d 84 d4 2e c0 b4 9a ca bd 40 c7 84 bf
       0.037306156 -2.731721 -0.098927885 -1.0373306
000220 03 5e 41 40 47 ea 8e 3f 96 25 63 3f df bb ed 3f
       3.021363 1.1165246 0.88729227 1.8572959
000230 9a ff c8 bf 1f 67 d5 3e a0 bf 1e 3f 92 85 3c 3f
       -1.5703003 0.41680238 0.62011147 0.7364131
000240 4e b0 d3 3f f5 b1 91 40 59 11 05 c0 6b 43 7a 3d
       1.6538179 4.5529733 -2.0791838 0.06109945
000250 e0 22 01 bf 99 c1 cd bf 7c 9c d8 3e cd 70 15 40
       -0.5044384 -1.6074706 0.42306888 2.3350098
000260 fd 9c 40 3e 21 69 29 40 32 66 52 3f c8 23 98 3c
       0.18809886 2.6470416 0.8218719 0.01857175
000270 50 e0 43 40 f4 95 7d 3f 5b 6f 91 40 c9 dd e7 bf
       3.060566 0.99056935 4.544843 -1.8114558
000280 1e 8c b4 3f e9 b2 0a 40 b8 88 15 40 0d 31 39 3e
       1.410526 2.1671698 2.3364697 0.18085118
000290 65 f7 ec 3f d7 d2 08 3f 3d d3 a2 3e c5 8a 24 40
       1.8512999 0.53446716 0.31801787 2.5709698
0002a0 35 5d 56 bf 87 6a a5 3f b3 4d 04 be 43 97 52 3f
       -0.8373597 1.2923135 -0.12920265 0.8226206
0002b0 ec d5 2f 3f f6 b4 7c 3f 20 71 20 c0 16 4d 8e 3f
       0.68685794 0.98713624 -2.5069046 1.1117275
0002c0 7f e2 9f 3f aa d5 30 40 72 73 23 bf 69 a3 6e 3f
       1.2490996 2.763041 -0.6384803 0.93218094
0002d0 d2 d9 17 40 e6 9e 18 c0 3a b3 99 3f fc 6a 8c 3f
       2.3726697 -2.3846984 1.2007821 1.0970149
0002e0 9f ff f0 3f 1b 73 f8 be b0 be 96 3f 67 4b 4d 40
       1.8828009 -0.48525319 1.1776943 3.2077272
0002f0 e4 57 bd 3f dc a0 8a 3f 89 f0 5f 3f bf 2f 96 3d
       1.4792447 1.083034 0.874764 0.073333256
000300 33 14 45 3e a0 60 c7 bf 83 7f 8d 3e 92 77 5f 3f
       0.19245987 -1.5576363 0.27636346 0.87291825
000310 db 20 a2 bf 84 c2 07 40 c2 1c 1a 40 7c 5e 4a 3f
       -1.2666277 2.1212473 2.4080052 0.7905042
000320 95 ee 78 bf ba 27 6b bf 4d c4 04 bd 3a 9f e3 3f
       -0.9723905 -0.9185749 -0.03241377 1.7782967
000330 9a cf 9a be 26 fa af 3f a2 4c c1 3f 5b bc 8a bf
       -0.30236512 1.3748214 1.5101511 -1.0838732
000340 d1 d6 45 40 16 42 9a 40 e9 ab 32 40 a9 48 63 40
       3.0912364 4.820567 2.7917426 3.5513098
000350 4a 30 f0 3e 35 61 52 3f 48 c8 cb 3f 69 9f 5f 3f
       0.46911842 0.82179576 1.5920496 0.87352616
000360 a0 a2 e6 3d 0f 54 f5 bf f8 07 01 3e f7 61 8b 3e
       0.11261487 -1.9166278 0.12600696 0.2722318
000370 a8 a3 e0 3e 43 81 57 40 53 57 11 40 7a 5e a6 be
       0.4387486 3.3672645 2.2709548 -0.32493955
000380 17 de 20 40 3a 85 1f 40 0e 5d 65 3f 13 3f ec 3d
       2.5135553 2.4925065 0.89595115 0.11535468
000390 20 35 37 bf a6 fb b0 3d f7 ef e7 3f f8 c8 52 40
       -0.7156544 0.08641748 1.8120106 3.2935162
0003a0 26 40 40 40 1a 86 25 40 6c ae 86 3f 7a 00 96 bf
       3.0039153 2.58631 1.0521979 -1.1718895
0003b0 5b b4 bf 3f a3 8d ba 3f 1a 60 8a bf 3f f5 f1 3f
       1.4976915 1.4574474 -1.0810578 1.8902968
0003c0 fc 1f 83 3f d7 02 37 40 16 09 00 be d6 dd dd 3e
       1.0244136 2.8595483 -0.12503466 0.4333331
0003d0 8d 91 8a be 4a fb 2f be 1b f0 1c 40 b4 76 db 3f
       -0.2706417 -0.17185703 2.4521549 1.71456
0003e0 9a ac 46 bf bb bd 81 bd 91 e2 29 3f ad ec 79 3f
       -0.7760712 -0.06335016 0.6636134 0.97626764
0003f0 14 32 48 3f 93 14 13 3f d0 b5 fd 3f ff cb 3b 40
       0.78201413 0.5745327 1.982111 2.934326

fc.1.running_var f4 [256]
000000 4f 73 75 3f b6 1e 87 3f 34 c3 6d 3f c6 b2 40 3f
       0.9587907 1.0556247 0.9287598 0.75272787
000010 46 6a 68 3f 66 15 33 3f 1b ff 8e 3f 1a 85 37 3f
       0.9078716 0.69954526 1.1171602 0.7168747
000020 f3 8b 58 3f 62 7e 89 3f 60 dc 7a 3f f3 a0 69 3f
       0.84588546 1.0741694 0.97992516 0.91261214
000030 01 36 62 3f cd 69 84 3f 1f 0a 8f 3f 0b 86 aa 3f
       0.88363653 1.0344788 1.1174964 1.3322157
000040 0f ea 4e 3f ad f0 3a 3f 15 87 c6 3f b3 7c 5e 3f
       0.80825895 0.7302349 1.5509974 0.86909026
000050 3c ad 19 3f 86 9e 56 3f c0 c2 2d 3f 69 72 95 3f
       0.6002996 0.8383564 0.6787529 1.167554
000060 f7 a2 64 3f e7 de 2f 3f 66 f7 26 3f 06 ee 1f 3f
       0.89311165 0.68699497 0.6522125 0.6247257
000070 c6 bc ae 3f 54 55 5e 3f ff bd 5c 3f 60 11 bd 3f
       1.3651359 0.8684895 0.8622741 1.4770927
000080 9e ed 64 3f 77 e6 80 3f d1 e4 87 3f 35 e2 66 3f
       0.89425075 1.0070332 1.0616704 0.90188915
000090 b8 d4 55 3f 38 b8 87 3f 9d fd 34 3f 5b d6 b0 3f
       0.8352771 1.0603094 0.70699483 1.3815416
0000a0 3d 44 ab 3f 80 50 2f 3f d4 5d 3d 3f 60 ee 73 3f
       1.33802 0.6848221 0.73971295 0.95285606
0000b0 df 22 62 3f f3 0a 81 3f 52 e2 9b 3f 7a 4f 2f 3f
       0.8833446 1.0081466 1.2178442 0.68480647
0000c0 28 9b 35 3f 5d 3f 72 3f 69 b0 f7 3e c3 17 85 3f
       0.70939875 0.94627935 0.48376778 1.0397877
0000d0 9f f1 35 3f 4a a0 2a 3f c6 f5 2e 3f b8 75 7a 3f
       0.7107181 0.6665083 0.6834377 0.97835875
0000e0 dc 62 25 3f 45 ff 8f 3f d2 e3 5d 3f 93 7d 48 3f
       0.6460397 1.1249777 0.8667575 0.7831661
0000f0 57 3d 48 3f 29 3a 3e 3f fd 03 6d 3f 06 c9 19 3f
       0.782186 0.74307495 0.9258421 0.6007236
000100 be bb 41 3f 07 74 4f 3f da 1d 91 3f 99 22 4c 3f
       0.75677097 0.8103642 1.1337235 0.7974029
000110 2b 4a 89 3f 13 cc 95 3f 3d f0 55 3f 3d db 25 3f
       1.0725759 1.1702904 0.835697 0.64787656
000120 3f 04 94 3f a0 5e 46 3f 80 6e fe 3e 04 63 3e 3f
       1.1563796 0.77488136 0.4969368 0.74369836
000130 01 fd 4f 3f 6f 75 41 3f bb 97 93 3f 90 09 82 3f
       0.8124543 0.75569814 1.153068 1.0159168
000140 04 1b a8 3f c2 3a 66 3f 1c ed 15 3f a6 84 6f 3f
       1.3133245 0.8993341 0.58564925 0.9356178
000150 f8 71 89 3f bf 4d 96 3f ca 27 83 3f ed d0 8f 3f
       1.0737906 1.1742476 1.0246518 1.1235634
000160 6d 45 a4 3f 92 7e 8d 3f 60 b2 57 3f 52 48 d0 3f
       1.2833687 1.1054251 0.84256554 1.627207
000170 03 eb 4e 3f a5 24 c4 3f 17 a4 63 3f 78 52 66 3f
       0.8082735 1.5323683 0.88922256 0.8996959
000180 43 7b af 3f ef 24 31 3f f5 16 8b 3f 94 e8 30 3f
       1.3709491 0.6919698 1.0866381 0.69104886
000190 45 05 7c 3f 0c fe 67 3f 20 3f 50 3f ca 46 69 3f
       0.9844554 0.9062202 0.8134632 0.9112364
0001a0 2d 27 16 3f 16 80 8f 3f f7 e8 95 3f c6 df 83 3f
       0.5865353 1.1210964 1.171172 1.0302665
0001b0 69 84 99 3f 05 1e 83 3f 65 ea 6c 3f f6 06 42 3f
       1.1993533 1.0243536 0.9254516 0.7579187
0001c0 c7 ee 1b 3f d7 42 7d 3f ab d2 39 3f 74 7c 95 3f
       0.6091122 0.98930115 0.7258708 1.1678605
0001d0 69 cf 86 3f 67 3e 46 3f fc e6 7b 3f dd f4 63 3f
       1.0532047 0.7743897 0.9839933 0.89045507
0001e0 5d 3f 87 3f c9 ea 69 3f f9 a4 47 3f 04 49 26 3f
       1.0566212 0.9137388 0.77986103 0.64955163
0001f0 d5 4c 2e 3f b1 5b 36 3f 31 48 16 3f f9 94 75 3f
       0.68085986 0.7123366 0.58703905 0.9593044
000200 c8 41 0c 3f dc 23 32 3f 05 a6 44 3f 22 fb 50 3f
       0.54787874 0.6958597 0.76815826 0.816332
000210 93 08 52 3f 92 d9 63 3f 1b 59 29 3f bd c0 7e 3f
       0.82044333 0.8900386 0.6615159 0.99512845
000220 12 99 8a 3f 62 43 1f 3f cb 3d 8b 3f 81 43 81 3f
       1.0827963 0.62212193 1.0878233 1.0098726
000230 f4 78 09 3f e6 53 3a 3f ff 0f 25 3f aa a9 4c 3f
       0.53700185 0.7278427 0.64477533 0.79946387
000240 f1 ac 72 3f bf e7 ab 3f 7e ec 48 3f 92 f1 61 3f
       0.9479514 1.3430098 0.7848586 0.8825923
000250 f2 3f 95 3f d1 b5 c6 3f fc 2a 83 3f 80 e6 42 3f
       1.166014 1.5524236 1.0247493 0.76132965
000260 32 ee 5a 3f 76 98 60 3f e8 03 4e 3f 73 50 a3 3f
       0.8551971 0.87732637 0.8047471 1.2758926
000270 ca c1 8f 3f e5 3e 46 3f 2f 79 8d 3f d2 65 5b 3f
       1.1231015 0.7743972 1.1052607 0.8570224
000280 8e b5 ae 3f f1 36 37 3f 14 4f 20 3f f3 4d 28 3f
       1.3649156 0.7156821 0.62620664 0.6574394
000290 d3 64 6d 3f 3c d8 72 3f 5e 62 3e 3f 49 a9 6a 3f
       0.9273197 0.948612 0.74368846 0.9166456
0002a0 8e c1 78 3f 91 36 7c 3f 97 38 58 3f 1a 10 dc 3e
       0.9717034 0.9852076 0.8446135 0.42981035
0002b0 d7 6d 31 3f 46 42 73 3f 5f ac 5e 3f 3e 13 8f 3f
       0.6930823 0.95023 0.8698177 1.1177747
0002c0 c3 72 2e 3f 04 8b 54 3f 8d 40 2a 3f 24 52 53 3f
       0.6814386 0.8302462 0.66504747 0.8254721
0002d0 2e 61 54 3f 3a f0 f4 3e 4f 6b 36 3f 55 a5 28 3f
       0.82960784 0.47839528 0.7125749 0.65877277
0002e0 78 ab 82 3f 23 dd 8d 3f 68 d7 16 3f 42 70 9f 3f
       1.0208578 1.108311 0.58922434 1.2456133
0002f0 11 83 8f 3f c6 d4 56 3f 32 cd 50 3f 51 cb 42 3f
       1.1211873 0.83918417 0.81563103 0.76091486
000300 ba 24 69 3f c7 3d 34 3f cc 72 56 3f ff 26 83 3f
       0.91071665 0.70406765 0.83768916 1.0246276
000310 06 5d 44 3f 92 d4 9b 3f ff 91 92 3f 53 d9 43 3f
       0.7670444 1.2174246 1.1450804 0.76503485
000320 57 41 3a 3f f7 c2 63 3f 74 ba 52 3f c3 1b 29 3f
       0.7275595 0.8896937 0.82315755 0.66057986
000330 48 39 90 3f fc 21 3a 3f 64 dd 45 3f 50 d4 46 3f
       1.1267481 0.72708106 0.7729094 0.77667713
000340 3b a1 9d 3f fe 57 95 3f b1 0a 81 3f 30 1f 6e 3f
       1.2314829 1.1667478 1.0081388 0.9301634
000350 23 9d 7c 3f 65 3f 20 3f de 03 78 3f 77 b9 b7 3f
       0.9867727 0.6259673 0.968809 1.4353474
000360 37 4a 63 3f fc 6e 53 3f 7d 37 ba 3f 54 05 69 3f
       0.8878512 0.82591224 1.4548184 0.91023755
000370 2e e7 6e 3f 55 45 24 3f e0 65 30 3f 28 3e 4d 3f
       0.933215 0.6416829 0.6890545 0.8017297
000380 42 b6 75 3f 55 a1 8c 3f 75 ee 5a 3f 10 dc 87 3f
       0.9598123 1.0986735 0.85520107 1.0614033
000390 32 97 16 3f a6 f3 11 3f e0 f4 3b 3f 15 1c 3d 3f
       0.58824456 0.57012403 0.73420525 0.73870975
0003a0 a8 f9 ae 3f 06 75 7b 3f 81 7c 95 3f 9f 85 69 3f
       1.3669939 0.9822544 1.167862 0.91219515
0003b0 e4 b1 b7 3f db e3 68 3f da 90 32 3f 37 4c 93 3f
       1.4351163 0.9097268 0.69752276 1.1507634
0003c0 60 0c 32 3f e8 22 9f 3f 48 c0 10 3f 72 fa 35 3f
       0.6955013 1.2432528 0.565434 0.71085274
0003d0 e0 33 07 3f fd 3d 34 3f a6 39 99 3f c9 b2 1f 3f
       0.5281353 0.70407087 1.1970718 0.6238218
0003e0 66 b0 97 3f 35 d1 88 3f b5 36 6f 3f c0 5a 8c 3f
       1.1850708 1.0688845 0.9344285 1.0965195
0003f0 e4 86 64 3f ca 64 90 3f 11 51 ea 3e 86 5e 69 3f
       0.89268327 1.1280758 0.45764974 0.91159856

fc.3.weight f4 [128, 256]
000000 8b 2c 58 bd 79 0c 8a bc 20 ae c4 3c 48 52 3b bd
       -0.052776854 -0.01685165 0.02400881 -0.045732766
000010 73 54 3b bd 0f 66 6c bd de c9 b5 bc 00 1b ae bd
       -0.045734834 -0.05771452 -0.022190984 -0.085012436
000020 77 b7 85 3d 7c d8 5c bc 9e 6b 95 3c 8d 71 15 3d
       0.06529134 -0.013479348 0.018239792 0.036485244
000030 96 37 5a 3d e9 15 a7 bb 58 4d ce 3b 02 d3 60 bd
       0.053275667 -0.0050990474 0.006295841 -0.054888733
000040 00 9b 6f bd 63 fb 3e 3c 60 de 0a bc f7 62 80 bd
       -0.05849743 0.011656615 -0.00847587 -0.06268876
000050 fc f5 94 3c 9a f5 c4 bc 0e b7 31 bd b5 fa 93 3d
       0.0181837 -0.024042893 -0.043387465 0.07225553
000060 bc ee f3 3c 97 74 9a bd ac 1e 42 bb 51 09 e7 3c
       0.029776923 -0.07541769 -0.0029620333 0.028202685
000070 d6 c1 88 3c cb 96 b7 3a 08 a2 55 bd ca af 98 3d
       0.01669399 0.0014006732 -0.05215648 0.07455404
000080 f3 98 5f 3c 8c 6c 90 3c ac cb a3 bc 2b 7e a7 3d
       0.013647306 0.017629884 -0.01999458 0.081783615
000090 30 9d 22 3d cb 5b 2a bd 1b b8 8a bd 21 d5 7d bc
       0.039700687 -0.041591447 -0.067733966 -0.015492708
0000a0 72 e0 11 bd 05 4a 7a bd 40 20 48 3c 5a 4f 13 3c
       -0.03561444 -0.061105747 0.01221472 0.008991087
0000b0 e3 48 d7 3c aa f2 7d bc 17 da 7f 3d 4c 7e a1 bc
       0.026279872 -0.01549975 0.062463846 -0.019713543
0000c0 0a d8 5e 3d 34 c0 eb 3c 95 e9 a8 3d 93 91 ca bb
       0.05440525 0.028778173 0.08247677 -0.0061819046
0000d0 1d 86 3f 3b 54 0f 09 bd c2 b5 9a 3b e5 98 73 3c
       0.0029224225 -0.033461884 0.0047213743 0.014867996
0000e0 0b db 74 bd cf 9e a1 3c 72 8c 8b 3d 6f 53 82 3d
       -0.05977921 0.019729046 0.06813897 0.0636357
0000f0 62 6d c8 3d 79 9e d5 3c a4 a7 b2 3c 30 00 c6 bd
       0.09786488 0.026076542 0.021808453 -0.096680045
000100 a5 4b 80 bd a3 d4 61 3c 22 fd a6 bd 00 02 60 3d
       -0.06264428 0.013783607 -0.0815375 0.054689407
000110 d8 c2 98 bd f6 24 43 bd 12 c5 2d bd c2 3d 71 3d
       -0.074590385 -0.04764267 -0.04242427 0.058896787
000120 a3 c8 a5 bb d6 8d a8 3c 31 81 18 bd 6d ea e4 bc
       -0.005059318 0.020575445 -0.03723258 -0.027943814
000130 49 b9 cf bc 67 90 66 bd d4 d1 a3 3c 40 68 b3 bc
       -0.025356906 -0.056290057 0.019997515 -0.021900296
000140 49 05 66 3d 16 83 95 bc 62 49 56 3c ac d8 ed 3c
       0.056157384 -0.018250983 0.013079019 0.029033981
000150 9a 90 5f 3d 9d 16 8f 3c 60 6d b4 3d 88 d6 27 bb
       0.054581262 0.017466838 0.08809924 -0.0025610048
000160 d6 4e 9b bc b0 07 de bc b5 67 4c bd ac 99 44 bb
       -0.01895849 -0.027103275 -0.04990359 -0.0029998822
000170 7b 95 2d bc 9a 3b e1 bb e9 dc 8e bd 67 6c c9 3c
       -0.010594721 -0.00687356 -0.06975729 0.024587823
000180 37 d4 93 3d 79 43 1c bd c8 ad 27 bd 6e b6 83 ba
       0.07218211 -0.038150284 -0.040937215 -0.0010048875
000190 62 ae a3 3c 14 08 bc bd 6a 16 1c 3d 70 08 df 3b
       0.019980613 -0.09181228 0.038107313 0.0068064258
0001a0 77 63 1e 3d 79 f2 ac bc a6 5f 5b bd f3 c4 a2 3b
       0.038669076 -0.021111714 -0.053558014 0.004967326
0001b0 22 95 82 3d 9f 47 4a bd 8d db c9 bb 4d ca 15 3d
       0.06376101 -0.04938471 -0.0061602057 0.036569882
0001c0 81 82 3f 3d 34 ad 9e bc 6c dd 55 bd d3 03 74 3c
       0.046755318 -0.019369699 -0.052213117 0.01489349
0001d0 7b d2 93 3d 9e 57 0d bd 8f 47 7b bb 70 55 a9 bc
       0.0721788 -0.034507386 -0.0038342213 -0.020670623
0001e0 ce 59 16 39 e8 85 9e bb 37 82 4a 3d 6b a1 ec 3c
       0.0001433857 -0.00483774 0.04944059 0.028885564
0001f0 06 4d 07 3d a7 48 84 bc 1f 33 80 3b 91 af 7e 3c
       0.03303244 -0.016147925 0.003912344 0.015544788
000200 55 27 00 bd 34 5b 0f bd bd 1c 2f 3d 22 27 01 ba
       -0.03128751 -0.034999087 0.042752016 -0.0004926791
000210 0f a4 4c 3d fb f5 9f 3c c8 52 9e bc bf 81 0c bd
       0.049961146 0.019526472 -0.019326583 -0.034303423
000220 d4 a8 22 bd 19 51 74 3c a5 13 c1 3c ce af 36 bb
       -0.03971179 0.014911913 0.023568938 -0.0027875784
000230 83 c5 50 3d 24 66 a5 bd ed 7f e1 3b b6 9b 0c 3d
       0.05096961 -0.080761224 0.006881705 0.034328185
000240 85 89 60 3c 9c 9c 5a 3d 4b 27 af 3b ec 48 80 3d
       0.013704662 0.05337201 0.0053452603 0.06263909
000250 60 cb a0 bc 72 7c 03 3c 7e b3 3a bd 0a 91 e1 bc
       -0.019628227 0.008025276 -0.045581333 -0.02753498
000260 0f 03 35 bd 2b c2 62 bc 5e 89 a8 3c b6 48 ca bc
       -0.04419237 -0.013840239 0.020573314 -0.024692874
000270 cf 63 a4 3c 4a 92 cb 3c 02 16 dc bc 09 c1 98 bb
       0.020067124 0.02485003 -0.026865963 -0.0046616835
000280 b6 e9 f9 3c ed 8b fb 3c 1b 33 14 bd e2 02 3b bc
       0.03050695 0.03070637 -0.03618155 -0.011414262
000290 da d6 b7 3c 52 40 d8 bc 8f c9 a3 bb 74 f0 3f 3d
       0.022441316 -0.026397858 -0.004998393 0.046860173
0002a0 f2 88 c3 3c df d3 23 bc d6 b1 9d bb c2 b0 6d 3d
       0.023869012 -0.0099992445 -0.0048124595 0.058029898
0002b0 96 d6 20 bc 49 80 a3 3d ba 8c 4e 3d 9c fe fa 3c
       -0.009816786 0.07983453 0.050427176 0.030638985
0002c0 de 3c 2a bb 45 1e 17 bd 9f 1e df bc 62 89 5d bd
       -0.002597622 -0.0368941 -0.027236281 -0.054086097
0002d0 26 40 3c 3d b0 75 09 bd 4d 4e c5 bc 8b 50 ae bc
       0.045959614 -0.0335595 -0.024085188 -0.02127864
0002e0 70 7e 51 bd 24 fe fc 3b 04 dd e4 bc e9 e8 cf bc
       -0.05114597 0.0077207256 -0.02793742 -0.025379615
0002f0 4b 59 32 3d bc bd 12 bc b3 17 94 3d cb b4 ad bd
       0.043542188 -0.008956369 0.07231083 -0.08481749
000300 78 be 6d bd 77 de 7f 3c 11 a0 0d 3c 62 95 14 bd
       -0.058042973 0.015617005 0.00864412 -0.036275275
000310 c5 85 64 3d fb 6b 88 3c ed 4a 9f 3b 01 da ae bd
       0.055791635 0.016653052 0.004861227 -0.08537675
000320 61 9d 8a 3c e3 e5 6c bd 14 db 90 3c 6d 9d 1c bd
       0.016920747 -0.057836425 0.01768259 -0.03823607
000330 0d fc 57 3d f9 03 c0 3a 43 00 cf bd b5 90 82 bd
       0.05273061 0.0014649621 -0.10107472 -0.06375257
000340 9f f8 c1 bc 4e b0 c2 bc 69 3b 1c 3d a4 7b 78 3d
       -0.023678122 -0.02376571 0.038142595 0.060664788
000350 76 31 24 bc 32 8c 0a bd 63 23 09 3c a7 6a 81 3d
       -0.010021558 -0.033825107 0.008370253 0.063191704
000360 3a fc 3a 3d d3 04 7e bd 9a 19 50 3b fa f8 a9 bb
       0.0456507 -0.06201632 0.003175354 -0.005187151
000370 c3 3f 0e 3d 76 5c 4b bd de 08 94 3d 58 aa 6b bb
       0.034728777 -0.049648724 0.07228254 -0.0035959687
000380 42 dc b5 3b bd 23 54 bc d6 11 af bd 6b 33 f8 bc
       0.0055499384 -0.012947974 -0.08548324 -0.030297955
000390 6d d7 21 bc 37 c9 1a bd 2c a5 98 bc dc 36 a9 bc
       -0.009878022 -0.03778955 -0.018633448 -0.020656042
0003a0 ac 2d 95 3d 98 38 68 bc e9 02 34 bd 6c 47 2f 3d
       0.07284102 -0.014173649 -0.043948088 0.042792723
0003b0 e7 61 80 3d b8 26 9e bc 6f c0 85 ba 17 f2 05 bd
       0.062686734 -0.019305572 -0.0010204444 -0.032701578
0003c0 4e e4 6f bd 47 da 01 3d 73 d8 0d 3c e3 17 13 3d
       -0.058567338 0.031702306 0.008657563 0.035911452
0003d0 6a 49 a2 bd 12 b1 c1 3c 82 e9 8b 3c 39 78 14 bd
       -0.07924159 0.023644004 0.017079119 -0.036247466
0003e0 3f ed f6 bc 8f c3 62 bc 4b b6 4b bc e2 a4 29 3d
       -0.030142425 -0.01384057 -0.012433599 0.04141701
0003f0 e6 42 7f bd 2b 7e 46 bd 10 e1 a1 bc cf a3 00 bd
       -0.06231966 -0.048460167 -0.019760638 -0.03140622
