4.deeplearning/01.mlp/stage01/save_params/params.pth (torch, 952111 bytes, 14 tensors)

fc.0.weight f4 [256, 784]
000000 18 d5 a6 3b 6b b0 07 3c 31 e5 b1 3c 2e b8 42 3b
       0.0050913207 0.008281807 0.021715732 0.002971183
000010 ff a8 8d bb 7a 31 54 bc 76 d8 08 3d 0b fd 7b bc
       -0.0043231244 -0.012951249 0.03340956 -0.015380154
000020 02 97 d9 3b c3 3d 26 bb f5 f0 1c bb 0e de c5 bb
       0.006640316 -0.0025366403 -0.0023947333 -0.006038434
000030 8d 6b 16 bd a8 a0 27 bd c6 7e 05 bd 5e be 7c 3c
       -0.036723662 -0.040924698 -0.032591604 0.015426246
000040 d9 92 8e 3b db 7b 36 3c c0 eb 9b 3c c1 0e a0 bc
       0.0043510017 0.011137928 0.019033313 -0.019538285
000050 b9 cb 78 bc e5 a7 fb 3b e4 b3 18 3c e5 a7 ae 3b
       -0.01518529 0.0076799267 0.009320233 0.005330073
000060 6b b6 48 3b a1 64 f4 3b 0c c4 bf bc f1 67 92 3c
       0.0030626308 0.007458285 -0.023408912 0.017871829
000070 39 04 78 3a ae 09 e2 bc c6 5e 47 3c 85 37 b8 bc
       0.00094610784 -0.027592506 0.012168592 -0.022487411
000080 77 86 56 3c cd 52 e3 3c c2 b2 06 bd 40 90 e5 bc
       0.013093582 0.027749443 -0.03288532 -0.028022885
000090 61 96 48 bd 16 87 31 bc 08 58 9a bd 6c de 96 bb
       -0.048971538 -0.01083543 -0.07536322 -0.0046041515
0000a0 99 9d 04 bd 8d 89 8c 3c 42 ee e1 bc 3b 93 d4 3c
       -0.03237686 0.017155433 -0.02757943 0.025949111
0000b0 04 42 4a 3b 3c cc 02 bd f9 ab b2 bc 46 0d bd ba
       0.0030862102 -0.031933054 -0.021810519 -0.0014423511
0000c0 1d 75 00 3d 8e 0d 14 3d 37 e4 98 3c 6e 7d b9 3c
       0.031361688 0.03614574 0.018663509 0.022642817
0000d0 c9 7a ad bb a5 08 66 bc 7f 4e f2 3c d5 ec f2 bc
       -0.005294178 -0.014040147 0.029578445 -0.029653946
0000e0 2a 2c 33 3c 14 7f f7 bc bf b6 af 3c 5a 8e c6 3c
       0.0109358225 -0.030211963 0.021449445 0.0242378
0000f0 5d d4 2f bb c7 f9 db ba 70 2b c2 bc d1 00 c3 bc
       -0.002682946 -0.0016782813 -0.023702353 -0.0238041
000100 fa ca 22 bd 28 82 8e bc 38 5d cd bc f4 14 1b bd
       -0.039744355 -0.017396048 -0.025068864 -0.03786178
000110 0a 29 80 3d d6 2a ef bb 10 1a 2d ba 74 d1 48 3c
       0.062578276 -0.0072988076 -0.000660331 0.012256969
000120 47 de 9f bb 41 4d a4 3c b9 88 4b 3c a3 b3 0a 3d
       -0.0048787924 0.020056369 0.012422734 0.03386272
000130 4a 39 5d bc d6 84 e5 3c ed 70 08 ba 9a a6 98 3c
       -0.013502428 0.028017443 -0.00052048155 0.01863413
000140 31 79 86 3c ef bd 68 3c 2f 9d f8 3c 54 2e 05 3c
       0.01641521 0.01420544 0.030348388 0.008128721
000150 d7 d9 9c 3c 92 88 8c 3c 4c 48 b0 3c 63 c8 d8 3c
       0.019146843 0.017154966 0.021518849 0.02646274
000160 5d 61 23 3d ff 15 2b bd 1b 7a 4b bd e4 b4 a4 bc
       0.039887775 -0.041769024 -0.049676996 -0.020105787
000170 e1 d4 3b bc 89 b3 b4 bc 62 62 d3 bc 79 af 10 3c
       -0.0114643285 -0.022058265 -0.025803749 0.008830898
000180 67 75 fa bc 59 30 57 bc 28 4b b7 bc e3 26 60 bd
       -0.03057356 -0.013134086 -0.022374704 -0.054724585
000190 ab 09 33 bc 07 16 19 bd 20 c2 55 bc e9 f0 09 bc
       -0.010927598 -0.037374523 -0.013046771 -0.008419254
0001a0 03 d3 e4 bc 51 ff 03 bd 5b e4 d6 bc 83 bf 48 bd
       -0.02793265 -0.03222591 -0.026231935 -0.049010765
0001b0 b7 15 80 3c 32 fb 1e bd 3f 94 57 3c 4d b9 ca bb
       0.015635354 -0.038813777 0.013157903 -0.0061866404
0001c0 7e 08 e2 bc e2 cb 25 bd 5e dc 35 3c 82 94 f4 bc
       -0.02759194 -0.04047764 0.011099903 -0.02985597
0001d0 99 82 00 3c 1e 87 24 3d 1a cf 13 3d ce 94 29 bc
       0.007843637 0.04016792 0.03608618 -0.010350419
0001e0 17 53 f1 3c ca b5 b7 bc 94 27 93 3c 8c 65 14 ba
       0.029458566 -0.022425551 0.017963208 -0.00056608836
0001f0 92 65 fd bc 71 ad 80 bc ef e5 4e bd b7 9b 22 3b
       -0.030932222 -0.015707703 -0.05051225 0.0024812052
000200 78 f8 5d bc 6d c2 70 ba 7b 85 28 3c 13 e6 d8 3c
       -0.013548009 -0.0009184245 0.0102857305 0.026476895
000210 4a 52 10 3c 90 0a 02 bd b4 ce b8 bc f9 60 82 bc
       0.008808682 -0.031748354 -0.022559501 -0.01591538
000220 50 4f c9 bb d2 6d 2d bc 16 24 8c bc 98 72 8e bc
       -0.006143488 -0.010585265 -0.01710705 -0.017388627
000230 98 ae 21 bc c8 1b cb 3c aa 30 9b bc 1c e4 2f 3b
       -0.009868287 0.02479352 -0.018944103 0.0026838845
000240 13 f5 03 bd d4 98 3f 3c 86 d5 d7 3c 5c b8 73 bc
       -0.032216143 0.011694152 0.026346933 -0.014875498
000250 c9 86 ea bc ab 98 87 bb bb 9a 23 bb ed 6e 87 bb
       -0.028628724 -0.0041380725 -0.0024964053 -0.0041330964
000260 94 f6 3e bd 61 d3 f4 bc 58 97 12 bd e3 20 76 bd
       -0.046621874 -0.02988595 -0.035788864 -0.060089957
000270 37 35 0a bb 5a d3 f8 bc cd d6 29 bc 05 b2 c7 3b
       -0.0021088847 -0.030374218 -0.010366154 0.0060942196
000280 b0 f6 04 3a 85 c3 a9 bc f5 f4 39 3c 8f 2c 81 3c
       0.00050721597 -0.020723114 0.011349906 0.015768318
000290 1b 16 58 3c e5 21 2b 3c b5 b9 14 3b ae 65 b7 3c
       0.013188864 0.010445093 0.0022693698 0.022387352
0002a0 68 eb b1 bc e3 01 12 bc 33 32 2f 3c 47 cb 1f 3c
       -0.021718696 -0.008911583 0.010693121 0.009753055
0002b0 2b f2 f4 bc 2d 51 85 3b 00 fe 61 3c 0b d6 8f 3c
       -0.029900631 0.004068515 0.0137934685 0.017558118
0002c0 65 f3 0c bd ee c9 c9 bb 9f a0 90 bc 43 fe 14 3b
       -0.034411807 -0.006158105 -0.017654715 0.002273456
0002d0 53 71 b8 3b 61 30 82 3b b9 f8 09 bd 6d 9f b2 3a
       0.0056287437 0.0039730524 -0.033684466 0.0013627835
0002e0 af b8 47 bb da bb dd bc 03 97 5e bc 61 6a 87 bc
       -0.003047507 -0.027067114 -0.013585809 -0.016530218
0002f0 3f 39 0f bd ba 76 0a bd 22 0b bf 3b 61 d3 15 3c
       -0.034966704 -0.033804633 0.0058301846 0.009144635
000300 b6 87 ff 3b 8c 2e 57 bc 78 d9 97 3b 5b 8c 00 bc
       0.0077981604 -0.013133656 0.0046340786 -0.007845963
000310 6d 26 0a 3c ee e8 8a bc b5 0d 94 bc 05 53 95 bc
       0.008432013 -0.016956773 -0.018072942 -0.018228063
000320 0a 9f a5 3c 93 51 1f 3c 0c 1c 75 3c c7 0f d7 3c
       0.020217437 0.009724039 0.0149603 0.02625264
000330 4c 80 38 3c 33 f7 5f 3c 98 a2 b9 bc b4 ef 88 3c
       0.011261057 0.013669777 -0.022660539 0.016715862
000340 ea 76 75 3d 2e 08 7a 3c f4 fb a5 3c 69 9f b3 bc
       0.05992786 0.015260739 0.020261742 -0.021926599
000350 c5 7a e7 3b 56 33 f9 bc d7 e4 e4 bc da 46 d1 bc
       0.007064196 -0.030419987 -0.02794115 -0.02554648
000360 fd a3 a8 bc 82 1c 72 3c 26 d8 33 bc 9f 95 03 bb
       -0.020586008 0.014777305 -0.010976827 -0.0020078195
000370 dd 1b 88 bc 8f 00 30 bd 6b 2a 09 3d 31 79 67 bc
       -0.016614849 -0.042969283 0.03348772 -0.014128015
000380 29 c7 fc bc 85 a2 4a bd 94 b9 e6 bc 06 12 d3 3c
       -0.030856686 -0.049471397 -0.028164662 0.02576543
000390 c0 45 4b 3c 1e 1f 66 bd 21 6e b1 3c 96 26 54 b9
       0.012406766 -0.05618202 0.021658959 -0.0002023227
0003a0 79 a2 88 3c b2 6f ed 3c 7c c0 57 b9 d0 2a bb 39
       0.016679035 0.028983925 -0.00020575704 0.00035699317
0003b0 92 02 e1 3c 6b 1c 8f bc e3 46 95 bc 3a 22 f7 bc
       0.027467046 -0.017469605 -0.018222278 -0.030167688
0003c0 63 36 e8 bc 1e 16 d7 3c 83 97 51 3c a1 30 84 3c
       -0.028346246 0.026255663 0.012792471 0.01613647
0003d0 b1 d1 2b 3b 97 80 97 bb e7 40 db bb 7f 28 af 3c
       0.0026217515 -0.0046234834 -0.0066910866 0.021381615
0003e0 8f 42 ed 3c 08 81 b0 3c 4d 06 ae bc d7 b1 e8 bc
       0.028962402 0.021545902 -0.021243239 -0.028405113
0003f0 e3 ef f3 bc aa f5 23 bd 55 f5 1e bb 0d 75 d2 3b
       -0.029777473 -0.040029205 -0.0024255116 0.006422645

fc.0.bias f4 [256]
000000 55 5f 0a 3c 63 35 03 3d 29 91 86 bb f9 8a 8b 3c
       0.0084455805 0.032033335 -0.00410666 0.01703404
000010 19 a5 08 bd 76 cf 86 3c d1 31 84 3c 15 a8 5e 3b
       -0.033360574 0.016456347 0.016137036 0.0033974696
000020 82 0b cc 3c 7c ff f0 3b bf c0 92 3b e2 a1 fd 3c
       0.024907831 0.007354675 0.0044785435 0.03096098
000030 dd fd bd bc 61 59 01 bd 66 bd ac bc 44 47 04 3d
       -0.02319234 -0.03157938 -0.021086406 0.032294527
000040 9c 71 f5 3b 98 38 dd 3c 12 ed 5f 3c b0 dc 96 bc
       0.00749035 0.027004525 0.013667362 -0.018415779
000050 bb ec a2 3c ea 7b 65 bc fb df 97 3a 3b c9 07 bd
       0.019888273 -0.014006594 0.0011587137 -0.033150893
000060 f7 0e b9 3a 2e c1 8a 3c 5c d2 ec bc de 0e ed 3c
       0.001411884 0.016937818 -0.0289089 0.028937753
000070 b7 46 d9 3c 8f 69 87 bc 25 90 e6 3c 71 0a ac bc
       0.026522977 -0.016529826 0.028144905 -0.021001073
000080 ab 13 c7 bc 68 b5 f2 bb 62 0f 27 bb 28 c8 ae bc
       -0.02430137 -0.007406879 -0.0025491347 -0.021335676
000090 cc e7 72 3c f9 40 36 bc 32 38 0a 3d f7 ef a0 bc
       0.0148257725 -0.011123889 0.033745 -0.019645674
0000a0 37 97 77 bc ff da a5 bc f8 f1 69 bc 2e f2 aa bc
       -0.015111736 -0.020246027 -0.014278881 -0.020867433
0000b0 bb ea a6 3c ff 79 af bc 5e 0d 23 bc af 9c 9e bc
       0.0203756 -0.021420477 -0.009951917 -0.019361822
0000c0 1a 8b 92 bc 17 1c 39 3c ac fd 0d bd 3a 17 04 3d
       -0.017888594 0.011298201 -0.03466575 0.032248713
0000d0 4e 70 75 ba 1b 85 c5 bc 95 5f c7 3c 49 f8 c2 3c
       -0.0009362743 -0.024111321 0.02433757 0.023800032
0000e0 43 0a 34 bb 73 60 b6 3c a2 77 09 bc 8e e6 c4 3c
       -0.0027471937 0.022262787 -0.008390339 0.024035718
0000f0 01 ac 95 3b e8 5d e4 bc 08 29 dd 3c ad 35 20 3b
       0.0045676236 -0.02787681 0.026997104 0.0024446056
000100 07 7e 87 bc 11 21 29 bc 2e f6 62 3c fe 03 d1 3c
       -0.016539587 -0.010322825 0.013852639 0.025514599
000110 b5 d4 53 bc 80 8c f7 3c 78 c3 0d bd 6d 21 3d bc
       -0.012929131 0.030218363 -0.03461024 -0.011543614
000120 3d 5e e7 3c b4 b5 d8 b8 93 bc 72 3a d0 df 0c 3d
       0.028243179 -0.000103335275 0.0009259667 0.03439313
000130 e3 49 00 bd 18 53 d3 3c 15 5d 5b bc d0 af b1 bc
       -0.031320464 0.025796458 -0.013388892 -0.02169028
000140 b0 5e 1e bc d0 7c d0 bb 85 5d 56 bc 71 d0 c4 bc
       -0.00966613 -0.006362535 -0.01308382 -0.024025174
000150 5e 18 2a 3b ba 8a c4 bc 84 b3 04 3d b9 61 e3 3b
       0.0025954465 -0.023991931 0.032397762 0.0069391397
000160 b4 a3 81 bc b1 41 2e bb a1 a4 d8 3c cc 6e be bc
       -0.01582513 -0.0026589448 0.026445689 -0.023246191
000170 e2 4e 3a 3c 26 4d 20 bc 9e 59 b9 3c 05 f5 1b 3d
       0.011371346 -0.009784019 0.02262574 0.038075466
000180 f2 b2 09 3d dd 9e 18 3d cd d9 a9 bb 1e 10 94 bc
       0.03361792 0.03726088 -0.0051834346 -0.018074092
000190 07 8f 93 bb eb 9e ec bc c8 09 12 3c 9a c4 7f bc
       -0.004503134 -0.028884372 0.008913465 -0.015610838
0001a0 05 95 f6 3c 3e 2b d0 bc 13 bf d6 bb 3c 6b 52 3c
       0.030100355 -0.025411244 -0.0065535395 0.0128429495
0001b0 60 14 5b 3b 2d c5 0b 3d 7e 9d 03 3d 00 f3 0c bc
       0.0033428892 0.03412359 0.032132618 -0.008602858
0001c0 e5 5e 0a bd 51 7f 9a 3c 05 df c3 3a a5 eb a2 bc
       -0.033781905 0.018859537 0.0014943784 -0.019887755
0001d0 82 3b 38 bc 95 b0 06 bd 74 84 c6 3c 80 f2 bf bb
       -0.0112446565 -0.032883245 0.02423308 -0.0058577657
0001e0 a2 7a 95 b7 1a 98 b6 3c 24 0c 85 3c cb d4 05 3d
       -1.781929e-05 0.022289325 0.01624114 0.03267364
0001f0 20 fa 03 bd c6 77 e9 bc e5 17 ca bc 73 e7 0d bd
       -0.03222096 -0.028499495 -0.024669597 -0.034644555
000200 12 ac ab 3c 5d 8b 29 3b 91 1a d9 bc f0 0b d6 bc
       0.020956073 0.002587042 -0.026501926 -0.02612874
000210 45 f4 99 bc ce 22 5c bc b3 89 c5 bb 33 7a 82 3c
       -0.018793235 -0.013436032 -0.006028378 0.01592741
000220 54 72 86 3c 07 37 0d bd 49 1e 90 3c ad 5d ce 3c
       0.016411938 -0.034476306 0.017592566 0.025191152
000230 5c 6d 98 bb a6 2f 0b bd 47 c9 bf 3b d3 57 34 bc
       -0.0046517085 -0.033980988 0.0058528516 -0.011007267
000240 44 0a e7 bc 31 b8 f9 3c 1c 64 05 bd 61 fe d8 bb
       -0.028203137 0.030483337 -0.032566175 -0.006622121
000250 7f 63 f7 bc 12 5e 7e 3c c6 de 8d ba b8 eb 17 bc
       -0.03019881 0.015525358 -0.0010823838 -0.009272508
000260 f5 50 2c 3c 48 37 e4 3c 29 48 cf bb 8f b1 ea bc
       0.010517349 0.027858391 -0.006325741 -0.02864912
000270 39 86 0d bd e0 84 a7 bc 8d 41 ab 3b 4f 53 c9 3c
       -0.034551833 -0.020449102 0.00522632 0.024575857
000280 16 ca 05 3d 76 ba 15 3d 24 6d a1 bc fd 91 91 3c
       0.032663427 0.036554776 -0.019705363 0.017769808
000290 fc 11 de 3c a6 91 9f 3b 8f 42 e2 3c 55 69 d7 bb
       0.027108185 0.0048696576 0.027619628 -0.006573836
0002a0 a7 6f 73 3b 21 9e 0a bd 03 be b7 3c 18 79 92 3c
       0.0037145407 -0.03384221 0.022429472 0.017880008
0002b0 cc 42 85 3b 38 d0 eb bc 13 dc 3a 3c ee 2f 0e bb
       0.0040668007 -0.02878581 0.011405009 -0.0021696049
0002c0 89 60 aa bc 6c b4 c9 bc 74 9b d4 3b d4 58 14 3d
       -0.020797985 -0.024622165 0.006488258 0.036217526
0002d0 fd 21 ec 3c 9c 2d 00 bd 4f 68 05 3d a3 82 cb 3c
       0.0288248 -0.031293496 0.03257018 0.024842566
0002e0 65 01 06 bd e2 da 89 3c 30 49 15 bd 9a ba f2 3c
       -0.032716174 0.016828004 -0.03644675 0.029629994
0002f0 7b 39 7a bc bf 19 9f bc 08 45 49 bb c1 12 ef bc
       -0.0152724935 -0.019421456 -0.0030711312 -0.029183747
000300 47 80 ed 3c 81 bd a9 bb d5 df 85 bb 18 11 9c 3c
       0.028991831 -0.0051800613 -0.0040855207 0.01905112
000310 18 85 fe 3c c7 cf c1 3c 52 ea 7f ba c3 4a af 3c
       0.031069323 0.023658646 -0.00097623945 0.021397954
000320 60 e5 98 3c e1 c8 53 bc 36 cf 3b 3c 53 11 19 3c
       0.018664062 -0.012926311 0.011462977 0.009342509
000330 14 8a 2a bb 9b 94 0f bc 6e e1 43 bb e3 ab a3 3c
       -0.0026022242 -0.008763458 -0.0029889005 0.019979423
000340 72 b8 37 3b 10 b7 07 3d 6e 72 9f bb 2a 2d cf bc
       0.0028033522 0.033133566 -0.004865936 -0.02529009
000350 e4 ab dd bc ef 05 08 bd 00 4f d8 3c 9d e5 df 3c
       -0.027059503 -0.033208784 0.026404858 0.027331168
000360 bd 38 d9 3c a9 9c 10 bc 07 40 0e bd b7 0f 7a bc
       0.026516313 -0.008826413 -0.03472903 -0.015262536
000370 e6 7f ff 3b c3 d5 ef bc 93 5f 53 bb 60 b4 e8 3c
       0.007797229 -0.029276734 -0.0032253012 0.028406322
000380 06 84 c9 bc fc 1b a3 bb db cf a6 3c 2f 16 11 bd
       -0.024599086 -0.004977701 0.020362785 -0.035421547
000390 19 ae ac 3c 73 a2 69 3c 80 9d 4f bc be c2 c2 bc
       0.02107911 0.014259922 -0.012671828 -0.023774501
0003a0 7e 2e 1b bd 2b 96 cb bc ca 09 98 3a d2 47 73 3c
       -0.037886135 -0.02485188 0.0011599597 0.014848666
0003b0 d9 5c ad 3c 12 18 6f bc 15 73 3b 3c e6 5d 93 ba
       0.021162437 -0.014593141 0.011441012 -0.0011243194
0003c0 af de f4 bc 9a e9 b5 bc 31 fb be bc ae 7f 2e 3c
       -0.02989134 -0.022206116 -0.023313137 0.010650558
0003d0 99 ec f4 bc cf 4f dd bc 69 0d ab 3c 2d 2c fc bb
       -0.029897975 -0.027015595 0.020880418 -0.007695696
0003e0 48 a8 dd 3c 2d 39 0e 3d 4a ca bb bc f0 c5 e5 3a
       0.027057782 0.034722496 -0.022923607 0.0017530303
0003f0 d9 02 50 bb f9 c4 a2 bc 3a 86 f9 bc 85 d7 87 bb
       -0.0031739979 -0.019869315 -0.030459512 -0.004145565

fc.1.weight f4 [256]
000000 e9 ce 80 3f 36 15 7a 3f cd 01 7f 3f 4b 06 80 3f
       1.0063144 0.97688615 0.9961212 1.000192
000010 62 33 7d 3f 82 ff 7f 3f fb 4f 71 3f 4b f1 7f 3f
       0.9890653 0.9999925 0.94262666 0.9997756
000020 be ab 85 3f cb 04 7f 3f 7e fc 80 3f f2 b4 79 3f
       1.0443037 0.9961669 1.0077055 0.97541726
000030 73 61 7b 3f f9 2c 76 3f 57 c3 84 3f d7 6d 7b 3f
       0.9819557 0.9616237 1.0372113 0.9821448
000040 67 ed 81 3f bf 9e 82 3f 20 ab 80 3f 6a 04 7d 3f
       1.0150574 1.0204695 1.0052223 0.9883486
000050 a3 4a 7a 3f 9f 54 83 3f fc 92 81 3f e6 d6 80 3f
       0.97770137 1.0260199 1.0122981 1.0065582
000060 28 23 82 3f 35 9c 7b 3f c5 64 7f 3f e9 6b 83 3f
       1.0166979 0.9828523 0.9976314 1.0267307
000070 bd e8 81 3f fc 10 81 3f 6a 91 81 3f 36 02 7d 3f
       1.0149151 1.0083308 1.0122502 0.988315
000080 b9 55 81 3f 43 53 7a 3f 76 24 75 3f ac 8d 72 3f
       1.0104285 0.977833 0.9575876 0.94747424
000090 cb a2 74 3f 71 b3 7b 3f b4 9b 7d 3f a7 46 81 3f
       0.955609 0.9832068 0.9906571 1.0099686
0000a0 9c 82 83 3f 59 37 7f 3f 34 80 80 3f ff 93 84 3f
       1.0274234 0.9969383 1.0039124 1.0357665
0000b0 7a 08 7d 3f c6 d1 83 3f af 35 83 3f 78 26 81 3f
       0.9884106 1.0298393 1.0250758 1.0089865
0000c0 9e 2b 81 3f 1d 8b 7a 3f 18 42 81 3f 76 94 7f 3f
       1.0091436 0.9786852 1.0098295 0.9983591
0000d0 79 90 78 3f a3 01 79 3f 0d 44 82 3f 9f ef 7c 3f
       0.9709545 0.9726812 1.0177017 0.9880313
0000e0 c9 f3 7b 3f a0 11 7f 3f 73 4c 7f 3f 34 5a 7d 3f
       0.9841886 0.9963627 0.9972603 0.98965764
0000f0 23 9d 82 3f 48 7b 7d 3f 50 9b 7e 3f 60 cc 7e 3f
       1.0204204 0.9901624 0.9945574 0.995306
000100 c7 90 74 3f 56 cf 7a 3f 60 f3 72 3f cf 84 80 3f
       0.9553341 0.9797262 0.9490261 1.004053
000110 e0 ca 7c 3f 84 25 7f 3f 46 a9 77 3f 02 1c 78 3f
       0.9874706 0.9966662 0.96742666 0.96917737
000120 ba 35 82 3f 65 ac 81 3f d1 5b 82 3f d5 c0 7c 3f
       1.0172646 1.0130736 1.018427 0.9873174
000130 a5 bd 7a 3f 22 6f 81 3f 72 7f 77 3f 97 5d 7e 3f
       0.97945625 1.011204 0.9667884 0.99361557
000140 12 0a 7b 3f b0 8f 7f 3f de f8 82 3f 7d fd 7b 3f
       0.9806224 0.99828625 1.0232198 0.9843367
000150 4d 9b 7e 3f 50 5a 78 3f d9 32 76 3f f3 b1 7c 3f
       0.9945572 0.97012806 0.9617134 0.9870903
000160 52 6e 7e 3f 64 c5 78 3f c5 34 82 3f 82 13 82 3f
       0.99387085 0.97176194 1.0172354 1.0162203
000170 db 13 7d 3f 4e e4 7e 3f 38 c2 82 3f d9 a3 81 3f
       0.9885842 0.99567115 1.0215521 1.0128127
000180 89 cd 71 3f 39 37 7b 3f c5 67 7c 3f e5 05 81 3f
       0.94454247 0.9813114 0.9859584 1.0079924
000190 f6 3c 7b 3f 67 e7 82 3f bc 66 7f 3f b7 19 7e 3f
       0.98139894 1.0226868 0.99766135 0.9925799
0001a0 3e 67 80 3f ea af 79 3f 10 db 79 3f ed 02 81 3f
       1.0031507 0.9753405 0.9759989 1.0079018
0001b0 64 a6 80 3f d9 20 7b 3f c7 aa 80 3f e5 16 7e 3f
       1.0050778 0.98096997 1.0052117 0.99253684
0001c0 92 01 7b 3f 29 f7 74 3f 6b a4 84 3f 79 8d 81 3f
       0.9804927 0.95689636 1.0362676 1.0121299
0001d0 76 a6 82 3f e0 fc 7a 3f e5 2f 7e 3f 41 6e 73 3f
       1.020705 0.98042107 0.9929183 0.9509011
0001e0 c1 b0 82 3f 60 fd 7e 3f aa 28 7c 3f 6b 7a 77 3f
       1.0210191 0.9960537 0.9849955 0.9667117
0001f0 8e 4b 80 3f ca 6d 85 3f 15 36 80 3f 12 c5 83 3f
       1.0023057 1.042413 1.0016505 1.0294516
000200 1a 74 81 3f ee cc 82 3f 27 ad 80 3f 60 28 83 3f
       1.0113556 1.021879 1.0052842 1.0246696
000210 0d 8f 78 3f e9 94 80 3f bf 73 85 3f 00 13 7c 3f
       0.9709328 1.0045444 1.0425948 0.9846649
000220 9b 80 81 3f ea 64 77 3f 01 47 7f 3f f4 ac 82 3f
       1.0117372 0.9663836 0.9971772 1.0209031
000230 11 41 7f 3f 89 f3 81 3f b7 f9 7b 3f d0 e8 82 3f
       0.9970866 1.0152446 0.9842791 1.0227299
000240 67 e4 83 3f ad 14 82 3f 21 90 7f 3f 21 ae 79 3f
       1.0304078 1.016256 0.998293 0.97531325
000250 e1 27 80 3f 6d 44 7d 3f 7b 2d 7a 3f 04 6a 7f 3f
       1.001217 0.98932534 0.9772565 0.9977114
000260 fc 3f 7d 3f b4 f3 73 3f 9b 6e 75 3f ea 6d 7f 3f
       0.9892576 0.95293736 0.95871896 0.9977709
000270 a3 90 80 3f 02 11 83 3f 7e 23 80 3f 3b ce 7a 3f
       1.004414 1.0239565 1.0010831 0.9797093
000280 4d 3a 84 3f cd b2 80 3f 5b b0 83 3f 96 fb 82 3f
       1.0330292 1.0054566 1.0288194 1.0233028
000290 50 86 7a 3f 4a c9 7f 3f 64 62 81 3f 6c 74 7d 3f
       0.97861195 0.9991652 1.0108151 0.9900577
0002a0 3d 75 83 3f c1 23 85 3f b4 f7 7c 3f da 6f 7b 3f
       1.0270153 1.0401536 0.98815465 0.98217547
0002b0 f5 68 7b 3f db fc 7a 3f 30 7e 7b 3f e2 4a 79 3f
       0.98207027 0.98042077 0.9823942 0.9737989
0002c0 17 53 81 3f 4e f9 79 3f 31 71 7e 3f 21 09 7f 3f
       1.0103482 0.97646034 0.99391466 0.99623305
0002d0 f9 56 83 3f c1 06 7a 3f 6e e6 80 3f 91 37 7a 3f
       1.0260917 0.97666556 1.0070322 0.9774104
0002e0 33 18 78 3f 12 e0 85 3f f0 02 75 3f 5e d1 7b 3f
       0.96911925 1.0459006 0.9570761 0.98366344
0002f0 ea 53 77 3f 60 dc 76 3f 84 88 81 3f 94 b2 75 3f
       0.9661242 0.96430016 1.0119786 0.95975614
000300 45 35 81 3f 80 3c 82 3f a7 ce 7c 3f 8d 31 7b 3f
       1.0094382 1.0174713 0.98752826 0.98122483
000310 80 f7 79 3f 56 89 80 3f 76 34 79 3f 90 1c 76 3f
       0.9764328 1.0041912 0.97345674 0.9613733
000320 f6 70 76 3f 8d 42 81 3f 4f 15 82 3f 22 77 7c 3f
       0.96266115 1.0098435 1.0162753 0.9861928
000330 23 c0 82 3f e8 50 7a 3f 7b fa 78 3f 49 ab 77 3f
       1.0214885 0.97779703 0.972572 0.96745735
000340 cb 4c 80 3f 5a 40 75 3f 8d 56 7f 3f 41 70 7c 3f
       1.0023435 0.9580132 0.9974144 0.98608786
000350 1b 9e 7c 3f 30 26 82 3f 51 f9 7e 3f a5 e1 7d 3f
       0.9867875 1.0167904 0.99599177 0.9917243
000360 78 e6 7c 3f a8 7f 79 3f d2 bf 75 3f 98 4e 7c 3f
       0.9878917 0.9746041 0.9599582 0.98557425
000370 e1 a5 82 3f b8 ea 7f 3f 24 b3 7e 3f f2 15 78 3f
       1.0206872 0.9996753 0.99492097 0.96908486
000380 25 1f 74 3f 97 fb 7b 3f 5a e9 83 3f aa 80 86 3f
       0.9536002 0.9843077 1.0305588 1.0508015
000390 42 0f 7e 3f 2e 1e 7a 3f 61 40 80 3f 2e f7 7f 3f
       0.9924203 0.977023 1.0019647 0.9998654
0003a0 60 30 82 3f 22 43 81 3f de 40 80 3f 29 6a 83 3f
       1.0171013 1.0098612 1.0019796 1.0266773
0003b0 06 eb 7a 3f 7c b8 7d 3f f1 48 78 3f 29 08 7c 3f
       0.9801487 0.99109626 0.969863 0.9844995
0003c0 c8 91 73 3f 0b dc 82 3f 17 20 7e 3f 29 73 78 3f
       0.9514432 1.0223402 0.99267715 0.9705072
0003d0 b4 a4 80 3f 80 35 7f 3f 2f e7 7b 3f af 8b 7e 3f
       1.0050263 0.9969101 0.98399633 0.9943189
0003e0 0b 05 83 3f 14 a0 7d 3f ad 85 7b 3f 98 5a 82 3f
       1.0235914 0.99072385 0.9825085 1.0183897
0003f0 cd d7 84 3f 33 9a 80 3f ff 88 7e 3f d1 08 7b 3f
       1.0378357 1.0047058 0.9942779 0.9806033

fc.1.bias f4 [256]
000000 fb af 47 bc 19 b0 19 bd 95 dd e3 bc d9 e8 36 bb
       -0.012187953 -0.037521455 -0.02781562 -0.0027909784
000010 ba 00 87 bd e1 38 7e bd 2a 42 5a bd c9 4a bb bc
       -0.065919355 -0.062065963 -0.053285755 -0.022862809
000020 47 3a ce bc 4d bd 78 bc 7d c4 9d 3c 06 f3 6c bc
       -0.025174273 -0.015181852 0.019258732 -0.014462238
000030 c7 91 51 bd ce f9 26 bd c2 b0 ba bc 77 82 99 3b
       -0.051164415 -0.040765576 -0.022789363 0.004684742
000040 56 65 7b bc d2 61 ea bc 3f 87 39 bd df a4 4f bc
       -0.015343985 -0.028611097 -0.045294996 -0.012673586
000050 99 6b 2c bd 69 5f 93 bd 37 60 7e bc 4b 06 31 bd
       -0.0420948 -0.071959324 -0.015525869 -0.043218892
000060 eb 6e 87 bc 15 89 6a bd cc c6 20 bd 3b 6c a8 3b
       -0.016532382 -0.057259638 -0.039252087 0.005139855
000070 f7 a3 88 bd 3a c5 7f bd 1b 58 f4 bc 18 c2 4c bd
       -0.06671899 -0.06244395 -0.029827168 -0.04998979
000080 9e 0b 8d bd 2b c4 10 bd 6f fc 92 bc bc 74 86 bd
       -0.068869814 -0.03534333 -0.017942635 -0.06565234
000090 e5 05 a6 bc 7a 1d 53 bd ae 8e c7 ba 72 9d 84 3c
       -0.020266483 -0.051541783 -0.0015225017 0.016188357
0000a0 71 e5 88 bc f2 2b ef bc 6f 35 f7 bc cd d4 d5 bc
       -0.016710969 -0.02919576 -0.030176846 -0.026102448
0000b0 cd 50 6d bd 14 93 e4 bb 35 94 05 bd 53 ec d1 bc
       -0.057938386 -0.006975541 -0.032612044 -0.025625383
0000c0 b2 67 a7 bc 48 72 49 bd 34 ca ee 3b de 1f 7e bb
       -0.020435188 -0.049181253 0.007287288 -0.0038776319
0000d0 3c 22 e6 bc 75 1a 87 bc ba 20 78 bc ba 57 e3 bc
       -0.028092496 -0.016492108 -0.015144521 -0.027751792
0000e0 bb 0e a4 3c f8 b9 28 bc 22 49 3e bd cf 93 4d bc
       0.020026555 -0.010298245 -0.046456464 -0.012547447
0000f0 5f 81 02 bd 3d 5e 7c bb ca 30 9f bc 1c ff 90 bc
       -0.03186166 -0.0038508319 -0.019432444 -0.01769977
000100 51 79 16 bc bd ac 67 bd c7 a1 07 bd 2e c6 1c bc
       -0.0091841975 -0.05656122 -0.033113267 -0.009568734
000110 c2 df a1 bd 82 d6 5e bd 01 c5 06 bd db 19 9b bc
       -0.079040065 -0.05440379 -0.03290272 -0.018933227
000120 2e 3a 53 bc 85 97 94 bc c3 bd 79 bd b8 55 2f bd
       -0.012892289 -0.018138656 -0.060971987 -0.042806357
000130 68 70 55 bd 96 90 f4 bc 60 de c7 bc 87 e7 60 bd
       -0.052109152 -0.0298541 -0.024398029 -0.0549083
000140 1c f2 b2 bc 24 8c 85 bc 1a eb ae bc f4 f2 92 bb
       -0.021843962 -0.016302176 -0.02135234 -0.0044845287
000150 e0 63 06 bd 67 11 2f bd be 64 8c bc 9c d2 5d bc
       -0.032810092 -0.042741206 -0.017137881 -0.013538983
000160 74 3e 50 bd ea 20 66 bd 69 85 21 bd a6 b1 46 bc
       -0.05084081 -0.056183733 -0.03943387 -0.012127316
000170 7b 7a 9f bd 08 77 46 bd 76 25 13 bd ad cc de bb
       -0.07787033 -0.04845336 -0.035924397 -0.0067993016
000180 3f 41 85 bd 8d ee c8 bc 5d d1 39 bd c5 d6 20 bd
       -0.06506585 -0.024527812 -0.04536568 -0.03926732
000190 0f 9c 13 bd e4 0e 34 bd 68 d7 ab bb 4f 4c d7 bc
       -0.0360375 -0.043959513 -0.0052441843 -0.026281504
0001a0 4d 76 54 bd 51 7a ec bc 8b 30 20 bd 02 c4 bb bc
       -0.051870633 -0.028866919 -0.039108794 -0.022920612
0001b0 40 56 5a bc b9 38 3e bd d4 ba 63 bd 50 ec 69 bd
       -0.013326228 -0.046440814 -0.055598095 -0.05711013
0001c0 2e 2b 24 bd 45 e6 6d bc d2 37 cc bc a8 cc 2c bd
       -0.04008024 -0.014520233 -0.024928961 -0.042187363
0001d0 fd 1e 1d bd 44 61 24 bd 72 5a 44 bd 85 98 76 bd
       -0.03835963 -0.040131822 -0.047937818 -0.060204048
0001e0 3c c1 be bb 28 ea f9 bc 8e 91 e4 bc 28 ba da bc
       -0.005821375 -0.030507162 -0.027901437 -0.026700094
0001f0 cb 6d c8 bb 03 8a 34 bd 9a 94 f8 bc e1 1a ac bc
       -0.006116604 -0.04407693 -0.030344296 -0.02100891
000200 90 bd e3 bc 77 15 bc 3c 30 64 0a bd 48 a8 cf bc
       -0.027800351 0.022959454 -0.033786952 -0.025348797
000210 00 36 8e bc 0b ac ef bc dc ea 74 bd 9e 27 93 bd
       -0.017359734 -0.029256841 -0.05979429 -0.07185291
000220 f9 0e 59 bc 81 e8 86 bd fa 60 b2 bc 00 74 98 bb
       -0.013248199 -0.06587315 -0.021774758 -0.0046525
000230 37 57 4e bd 2f 1c 12 bd e2 9b 33 bd 41 81 76 bd
       -0.050376143 -0.03567141 -0.043849833 -0.06018186
000240 99 07 7e bb 2b aa 09 bd 2d ac 59 bd 83 fb 64 bd
       -0.0038761853 -0.03360955 -0.053142715 -0.055903923
000250 59 d6 c0 bc 5e a0 d3 bc a1 13 99 bc 26 13 8d 3c
       -0.023539709 -0.025833305 -0.018686118 0.017221045
000260 15 e3 a1 bd 53 73 97 bc 26 68 f6 bc 5f 98 2c bd
       -0.079046406 -0.018487608 -0.030078959 -0.0421375
000270 3d 6e 95 bc dd 5b 6a bd 3a 81 63 bb e7 8d c5 bc
       -0.018241042 -0.057216514 -0.0034714476 -0.024115516
000280 ae ce a7 3c 07 4d d5 bb c2 d9 14 bd 63 df 7d bd
       0.020484295 -0.0065094265 -0.036340483 -0.061980616
000290 61 91 ec bc 4c f4 9d bd cc 14 44 bd 55 d8 47 bc
       -0.028877916 -0.077126116 -0.047871396 -0.012197574
0002a0 ff 73 e2 3b 94 67 86 bc 35 7f f7 bc fe 51 99 bd
       0.0069108005 -0.016406812 -0.030212024 -0.07486342
0002b0 33 07 07 bd 34 57 47 bd d3 e9 98 bd 8c 40 80 bd
       -0.03296585 -0.048667148 -0.074664734 -0.06262311
0002c0 2c 98 14 bd 40 71 35 bd af 79 2e bc 8a 29 54 bd
       -0.036277935 -0.044297457 -0.010649129 -0.051797427
0002d0 2a b7 87 bd 5c d9 9c bc fd dc 56 bc 3a 34 2a bc
       -0.06626733 -0.019146614 -0.013114211 -0.010388428
0002e0 8f 59 2f bd 72 4f 5e bc 04 ea 2d bd a9 ef ed bb
       -0.04281002 -0.013568746 -0.042459503 -0.0072612357
0002f0 87 13 fb bc 5e ef ca bc 0a 00 68 bd 74 64 1a bc
       -0.03064896 -0.024772342 -0.056640662 -0.009423364
000300 30 07 8a bd a0 76 48 bd 25 81 c5 bc 1a 6c 2b bd
       -0.06739652 -0.048941255 -0.024109432 -0.04185114
000310 2d 5d 73 bd 8a 03 8c 3c 12 e3 49 bc eb 51 07 bd
       -0.05941503 0.017091531 -0.012322204 -0.033037107
000320 47 23 1e bd 96 93 d0 bc 4d ef c3 ba f9 06 5b bd
       -0.03860786 -0.025461 -0.0014948637 -0.053473447
000330 bb 89 f3 bc 15 cc 94 bd 55 21 1a bd 73 29 54 bd
       -0.029728761 -0.07265488 -0.037629444 -0.05179734
000340 27 42 30 bd 5d 64 58 bd 10 13 0c bd 8b fd 0b bd
       -0.043031838 -0.05283009 -0.034197867 -0.034177344
000350 a7 71 18 bd 2f 59 33 bd f4 18 b9 bc 83 ff 4d bd
       -0.037217762 -0.043786224 -0.022594906 -0.050292503
000360 bf 1d 2c bd a3 12 49 bc bf 28 e2 bc bf dd 11 bd
       -0.042020556 -0.01227251 -0.02760732 -0.035611864
000370 e7 75 35 bd 56 a0 12 bd bc 4b 7a bc 2a 9a 77 bd
       -0.044301894 -0.03579744 -0.015276846 -0.060449757
000380 06 b7 99 bd 45 15 f1 bc 4c 3b d0 bc 54 39 71 bd
       -0.07505612 -0.029429087 -0.0254189 -0.058892563
000390 92 be 88 bd 3e 5a 49 bd f9 9f 2f bd 61 b9 5a bd
       -0.066769734 -0.049158327 -0.04287717 -0.053399447
0003a0 b1 7e 62 bd ce f6 2c bd dd 1c 2e bd 5e 27 3a 3c
       -0.055296604 -0.04222756 -0.042507995 0.011361925
0003b0 a6 e3 ca 3a 58 69 f9 bc a3 6f a7 bd a6 51 67 bd
       0.0015479221 -0.03044574 -0.0817559 -0.05647435
0003c0 f8 77 25 bd 7b 79 90 bc 30 d1 73 bc 6e 0d da bc
       -0.040397614 -0.017636051 -0.014881417 -0.026617732
0003d0 5d 7b 26 bd 78 11 1b bd 75 52 79 bd a0 3f c3 bc
       -0.040644992 -0.037858456 -0.060869653 -0.02383405
0003e0 d1 80 6a bc 3a 21 b8 bc dd 2d 23 bd a5 c5 b6 bd
       -0.014312939 -0.022476781 -0.03983866 -0.089244165
0003f0 d3 3a 52 bd 75 96 d7 bc d1 35 87 bd 9e 5a 71 bc
       -0.05132563 -0.02631686 -0.066020615 -0.0147310775

fc.1.running_mean f4 [256]
000000 9e 3b c0 3f 98 15 d7 3f ca a5 6c 3f 2e 68 87 3d
       1.5018194 1.6803465 0.92440474 0.066116676
000010 cf 78 d6 bb e6 55 a7 3c f6 22 20 40 8e 3e 79 3f
       -0.006545163 0.020426702 2.5021338 0.97361076
000020 0a dc 49 40 35 13 4f 3f 3b 2b 48 40 5e 96 06 40
       3.154055 0.8088868 3.1276386 2.1029277
000030 ff 31 84 bf b7 8d f3 3e 3d fa 87 40 c2 d7 6d 40
       -1.0327758 0.47569057 4.2492967 3.7162938
000040 85 2c b8 be 2b ec eb 3e da 12 f2 3f 3e 62 72 40
       -0.35971466 0.4607862 1.8912003 3.7872462
000050 81 9a 32 40 0a 3f 9d bd 72 5d 00 40 fc 95 0f bf
       2.7906802 -0.07678039 2.0057034 -0.56088233
000060 83 57 63 40 5a ae 14 c0 01 c0 c4 bc 7c 4d 62 3e
       3.5522163 -2.3231416 -0.024017336 0.2209987
000070 08 3c b3 3f 96 7d f3 3f 03 96 b0 bf 88 f4 2d 3f
       1.4002695 1.9022701 -1.379578 0.6795125
000080 8d 55 9b 3c 11 e7 bc 3f 07 00 6b 3e 3f e3 2c 3e
       0.018961692 1.4758016 0.22949229 0.16883563
000090 35 3f 1b 3e e9 ad 77 40 5b 7a 5c 40 36 2c fd 3f
       0.1516083 3.8699896 3.444968 1.9779117
0000a0 64 bc dc 3f 31 8a db bd af 31 f8 3f 65 34 5d bf
       1.7244992 -0.10719717 1.9390162 -0.8640807
0000b0 c6 37 1f 40 40 93 a8 3e 44 df a1 3f 26 c6 ad 3e
       2.4877791 0.32924843 1.264626 0.33940238
0000c0 0e 5d fa 3f b6 89 3b be 23 e7 07 40 70 0e fe be
       1.9559648 -0.18314251 2.1234825 -0.4962039
0000d0 1e 38 e4 3f 89 7c 3b 40 1f 61 a2 3c 92 a9 05 3f
       1.7829626 2.929476 0.019821702 0.5221187
0000e0 62 26 ea 3e a0 27 62 bd 4f 76 52 40 a6 d3 11 40
       0.4573241 -0.05521357 3.288471 2.278543
0000f0 be 2b 9f be 38 70 5c 40 1e a6 19 3f 89 fa 28 3f
       -0.3108806 3.4443493 0.600191 0.66007286
000100 cb e3 f1 3f 1b 01 14 40 52 a2 81 3e 30 ae 44 40
       1.8897642 2.3125675 0.25319153 3.0731316
000110 53 ad bc bf 1e b6 1e 3f 23 bf 17 40 c7 52 0e 40
       -1.4740394 0.6199664 2.371041 2.2238023
000120 86 45 d5 bf e2 c5 50 3f 41 90 66 bf 80 a9 b4 bf
       -1.6661842 0.81551945 -0.90063864 -1.4114227
000130 69 6a 9c 3f b3 c2 d9 bf 4f 91 e3 3f 7d 15 c8 bf
       1.2219974 -1.7012542 1.777872 -1.5631558
000140 e6 19 5f 3e ba a1 cd 3f 2d 61 3e 40 c1 cf b8 3f
       0.21787223 1.606498 2.9746811 1.4438401
000150 6d 7a 52 3f 7f e6 67 bc f0 c2 82 40 53 9b 23 40
       0.82218057 -0.014154076 4.086296 2.5563552
000160 fa d2 68 bf b6 65 70 bf 7f 7e 95 3f 57 46 d6 be
       -0.90946925 -0.939052 1.1679229 -0.4185054
000170 d0 e2 6d 40 85 d0 2c 3f 17 13 f1 be 56 ee 44 40
       3.7169685 0.67505676 -0.47084877 3.0770469
000180 74 22 90 bf c5 c7 e3 3e 94 5b 08 3d 11 b1 59 bf
       -1.1260514 0.4448835 0.03329046 -0.85035807
000190 51 a9 57 40 57 43 10 c0 82 4e 3d 3f c9 9c 29 3f
       3.3697093 -2.25411 0.7394792 0.6625486
0001a0 c9 0e c9 3f 53 9a 93 3e a7 da ff 3f 3a ac 39 40
       1.5707637 0.28828678 1.9988602 2.9011369
0001b0 f2 c8 0a 40 de 14 df 3f 2a c9 76 40 66 eb 44 3e
       2.1685147 1.7428243 3.856028 0.19230422
0001c0 f3 50 28 3f 0f ba b0 bd 43 15 8c bf bf ba 09 bd
       0.6574852 -0.08629238 -1.0943989 -0.03362536
0001d0 5c 10 86 bf 18 58 8a 3f fb 84 8c 3f e7 7a 0d 40
       -1.0473742 1.0808134 1.0978082 2.2106264
0001e0 4a 9d 92 3f ea f1 24 40 8f 38 31 3f dc fc eb 3e
       1.1454251 2.5772653 0.69226927 0.46091354
0001f0 82 2d 85 3f e3 de e1 bf 33 15 1b 40 5e be 0e 40
       1.0404513 -1.7646145 2.423169 2.230369
000200 c7 11 0b 40 5e 9b 7b 40 61 41 58 3f 1d ab f5 3f
       2.17296 3.9313579 0.8447476 1.9192845
000210 a4 01 75 3f 6a c1 37 3f 65 74 53 bf 64 fd cd 3f
       0.9570563 0.717795 -0.8259948 1.6092954
000220 0c 85 f7 3f 31 24 e8 3e 40 94 52 3f 2d 54 53 3f
       1.9337478 0.45340112 0.8225746 0.8255032
000230 85 74 80 40 46 25 be 3f 6d f4 e7 be 3e 2f 43 3f
       4.0142236 1.4855125 -0.4530367 0.7624396
000240 ce c0 0a 40 31 39 6c 40 08 72 11 40 d1 97 ad bf
       2.1680179 3.6909907 2.272585 -1.3561956
000250 75 57 93 be e6 ba 1a 3d 50 df 5a 3f 04 ff fe be
       -0.28777662 0.037775896 0.85497 -0.49803936
000260 e0 1d f1 3e 2a 54 47 40 21 cc a4 3f 7c dc de bb
       0.47093105 3.114512 1.2874795 -0.006801186
000270 26 94 04 40 e3 b7 9a 3f 08 44 6c 40 e6 b8 6d bf
       2.0715423 1.2087368 3.6916523 -0.9286026
000280 08 65 6a be 36 c8 80 40 4b 70 9c 3f c9 b4 b0 3f
       -0.22890103 4.02444 1.2221769 1.3805171
000290 9d 80 7e 3f 2e e2 ee 3e 69 e1 80 bf b4 ba e1 3f
       0.99415 0.46656936 -1.006879 1.7635102
0002a0 1d e0 64 3f d7 9e c6 3c c7 06 62 3f 20 eb 2e 40
       0.8940447 0.024245663 0.8829159 2.733101
0002b0 88 8b 7f bf 03 41 f0 3f 6a 3f 54 3e ce 44 c9 3e
       -0.9982228 1.876984 0.20727316 0.39310306
0002c0 04 0d 79 3f 3e b1 ba 3f be 22 00 3f 8a 2f 2c 40
       0.97285485 1.458534 0.5005301 2.6904016
0002d0 68 51 44 bf b2 b9 bd be cc 7b aa 3e 31 aa cd 3f
       -0.76686716 -0.37055737 0.33297575 1.6067563
0002e0 4a cb 9d 3f 4f 50 5d 3f 24 9e 56 40 48 f7 8f be
       1.2327664 0.86450666 3.3534021 -0.28118348
0002f0 9b 59 ee 3f 7e cb bc bc 53 22 bd 3f 36 dc b5 3c
       1.8621095 -0.023046251 1.47761 0.022199731
000300 f3 7f 15 40 85 3d 4b be 7f b2 5d 40 68 c4 bc 3f
       2.3359344 -0.19847687 3.4640195 1.4747438
000310 8d cb 27 3f 8a 65 24 40 46 f6 5c bd f7 73 b4 3e
       0.6554497 2.5686975 -0.053945802 0.35244724
000320 2b 0d 13 3f cd 41 2f 3f 87 a5 1c 3f e2 64 82 3f
       0.5744197 0.6845978 0.61190075 1.0187037
000330 3b b6 75 40 b3 b0 26 be be c8 6a 3f 6b 6f 1a 3f
       3.8392475 -0.16278343 0.9171256 0.6032626
000340 ba 7f 15 40 bd 80 a7 bf 95 c6 a0 3f 1d 1f 55 3f
       2.3359208 -1.3086163 1.2560602 0.832506
000350 4c 29 5d be a0 bd 71 40 a8 d0 6b 3f 1e ac 1a 40
       -0.21597785 3.7771988 0.9211526 2.4167552
000360 e4 ee 90 bf 66 e9 0b 40 2a 82 0f 40 85 1c 4f bb
       -1.1322904 2.1861205 2.2423196 -0.0031602692
000370 2f 00 43 3f 59 e2 a1 3f 83 f4 4a bf 18 76 27 40
       0.76172155 1.2647201 -0.79279345 2.6165829
000380 cb e2 4e 3f d3 c0 1a 40 48 86 91 3f 37 10 e3 be
       0.8081481 2.418019 1.1369104 -0.44348308
000390 cc 8c 03 40 1d 40 47 3f 2b 3f 73 bf cc e4 00 be
       2.0554686 0.77832204 -0.9501826 -0.12587279
0003a0 6e b0 f8 3f 1b 27 b1 be 16 e9 27 40 63 d5 e6 3f
       1.9428842 -0.34600148 2.6236014 1.803387
0003b0 e6 dc 06 40 f9 89 9a 3f e6 05 a8 3f 1b 76 a8 be
       2.1072326 1.2073356 1.31268 -0.32902607
0003c0 0b c9 1c 40 ad 7b e9 be 05 90 1b 40 b8 56 28 3f
       2.4497707 -0.4560217 2.4306653 0.6575732
0003d0 db 7c cb 3f ba b6 ef 3e b6 77 2e 3f d7 6f 35 3f
       1.5897478 0.46819097 0.68151414 0.7087378
0003e0 e3 15 45 40 24 51 93 3f 21 e6 6f 40 76 79 aa 3d
       3.0794609 1.1509137 3.748421 0.08323948
0003f0 1c c5 80 3a 37 6b 3f 40 c1 0e 99 bf b1 b6 0d bf
       0.0009824368 2.9909189 -1.1957628 -0.5535689

fc.1.running_var f4 [256]
000000 18 d2 82 3f 46 13 48 3f b6 bf e0 3e 15 0f 25 3f
       1.0220366 0.7815441 0.43896264 0.6447614
000010 13 13 4b 3f 4e db 44 3f f1 d5 4a 3f 7e bc 06 3f
       0.7932598 0.7689713 0.792327 0.52631366
000020 96 74 74 3f e6 85 27 3f 2e d2 23 3f 2a b7 7f 3f
       0.95490396 0.6543869 0.63992584 0.9988886
000030 dc ff 1e 3f f5 03 09 3f 34 0a 6c 3f 37 72 e6 3e
       0.6210916 0.5352166 0.9220307 0.45009014
000040 31 6e 27 3f ba 4a 23 3f 3d 55 21 3f 19 7b 9f 3f
       0.65402514 0.637859 0.6302069 1.2459441
000050 a0 a7 04 3f 16 f9 11 3f 76 b3 21 3f dc 0f 26 3f
       0.51818275 0.570207 0.6316446 0.6486795
000060 ed f0 2d 3f ae ce c9 3e 16 ed 31 3f c1 87 4e 3f
       0.6794575 0.39415497 0.6950239 0.80675894
000070 ea 7e 0e 3f 82 a8 37 3f fd fc ae 3f dc 12 3e 3f
       0.55662405 0.717415 1.3670956 0.7424753
000080 90 12 1f 3f e3 67 2e 3f 88 c0 26 3f 85 31 06 3f
       0.621377 0.6812727 0.6513753 0.5241931
000090 b2 75 47 3f 2e fa 38 3f 49 cf 3c 3f 8b e4 91 3f
       0.77913964 0.72256744 0.7375379 1.1397871
0000a0 ca 17 7a 3f fe 94 ed 3e 40 75 3f 3f c7 81 37 3f
       0.9769255 0.46402735 0.74788284 0.716824
0000b0 fa 37 3a 3f 8c df 00 3f 2d 6c 28 3f 97 86 33 3f
       0.72741663 0.50341105 0.65790063 0.7012724
0000c0 22 0b 41 3f 71 00 e5 3e 59 43 2a 3f 83 02 2f 3f
       0.7540761 0.447269 0.66509014 0.6836321
0000d0 8f 82 e1 3e 1f 70 0f 3f cd 97 35 3f d1 30 34 3f
       0.4404492 0.5603046 0.70934755 0.7038699
0000e0 29 69 16 3f 9f 03 49 3f 58 26 93 3f 7c 75 12 3f
       0.5875421 0.7852115 1.1496077 0.57210517
0000f0 e6 2d 1e 3f 5e 6b 47 3f 30 77 1c 3f a0 fe e0 3e
       0.61788785 0.77898204 0.61119366 0.43944263
000100 06 32 10 3f 6e f3 51 3f 6f f8 05 3f ec 21 77 3f
       0.5632633 0.8201207 0.52332205 0.96536136
000110 d7 a9 22 3f 34 f9 16 3f d6 77 eb 3e 13 00 10 3f
       0.63540405 0.58974004 0.45989865 0.56250113
000120 cc c3 1d 3f 74 26 1b 3f 26 0a 21 3f b0 e3 63 3f
       0.6162689 0.6060555 0.6290611 0.890193
000130 ae 01 77 3f 05 a2 7d 3f f8 df 2c 3f 9d 7d 02 3f
       0.9648694 0.9907535 0.6752925 0.5097292
000140 69 40 fa 3e 52 be 4d 3f 0b 8b 2c 3f 65 4f 17 3f
       0.48877266 0.8036853 0.6739966 0.5910552
000150 7b 18 4a 3f de 3c e1 3e c1 24 79 3f dd d2 0f 3f
       0.78943604 0.4399175 0.97321707 0.56181127
000160 84 29 d9 3e 0b 4f 66 3f 95 c1 46 3f b6 f1 54 3f
       0.42414486 0.8996436 0.7763913 0.8318132
000170 c6 ab 97 3f ca e0 2f 3f 63 c5 16 3f 27 3f 29 3f
       1.1849296 0.68702376 0.5889494 0.6611199
000180 2b 61 0b 3f b7 02 47 3f 1d c7 30 3f 69 07 33 3f
       0.5444514 0.7773852 0.6905382 0.6993318
000190 e9 5c 61 3f 6e 7e 14 3f e8 43 03 3f a5 73 32 3f
       0.88032395 0.58005416 0.5127549 0.6970771
0001a0 99 5e 20 3f 40 18 01 3f d2 27 1a 3f 7d e4 62 3f
       0.62644345 0.5042763 0.6021701 0.88629895
0001b0 27 9b 78 3f 9e b4 3a 3f 6f b2 34 3f 61 c9 29 3f
       0.97111744 0.7293185 0.7058477 0.66322905
0001c0 6f a9 2a 3f 05 11 2b 3f 3e de 92 3f 35 3b 31 3f
       0.66664785 0.66822845 1.1474073 0.6923097
0001d0 29 b1 15 3f f6 5d 07 3f f6 53 1a 3f 34 70 09 3f
       0.5847345 0.5287775 0.60284364 0.53686833
0001e0 f5 38 36 3f 90 ca 30 3f 98 e1 22 3f 67 7d f5 3e
       0.7118066 0.69059086 0.6362548 0.47947237
0001f0 a6 d7 fa 3e fc 64 5a 3f 5e 27 35 3f 15 71 48 3f
       0.48992652 0.8531034 0.70763195 0.7829755
000200 72 87 9f 3f 56 71 85 3f 27 2d 38 3f ae 7c 36 3f
       1.246321 1.0425212 0.71943897 0.71283996
000210 8a 15 2e 3f 06 6a f4 3e 7b fa 1d 3f ce b7 6f 3f
       0.68001616 0.4773714 0.6171033 0.9363984
000220 71 c0 4c 3f 86 06 1b 3f 8b ea 39 3f 8b b6 5a 3f
       0.7998114 0.6055683 0.7262351 0.8543479
000230 83 07 67 3f 3e 62 25 3f 65 b9 16 3f 69 72 22 3f
       0.90245837 0.6460303 0.5887664 0.63455826
000240 6e 3d 58 3f 76 10 94 3f 88 f7 6d 3f fb b7 44 3f
       0.84468734 1.1567523 0.9295583 0.7684323
000250 9b bd 0a 3f 6d 89 26 3f a5 0b 08 3f f4 e3 1d 3f
       0.54195565 0.65053445 0.5314277 0.61675954
000260 0c 82 e2 3e f8 5a 7e 3f c0 e8 6b 3f 1f 75 fd 3e
       0.44239843 0.9935756 0.92152023 0.4950342
000270 67 00 64 3f b0 77 10 3f 3e bb 25 3f ac 52 1e 3f
       0.89063114 0.5643263 0.64738834 0.618449
000280 99 20 6e 3f a6 ff 75 3f 50 25 2b 3f 4f 92 30 3f
       0.9301849 0.96093214 0.6685381 0.6897325
000290 31 96 41 3f 24 e3 f1 3e 15 77 5f 3f f8 ff 1e 3f
       0.756198 0.47243607 0.8729108 0.6210933
0002a0 17 f1 20 3f 5e eb 3a 3f b2 3d 23 3f 6d 01 49 3f
       0.62867874 0.7301539 0.63766015 0.785178
0002b0 79 f9 2b 3f 1b 6a 04 3f 84 a3 89 3f 20 55 a5 3e
       0.6717754 0.51724404 1.0753026 0.32291508
0002c0 ca 06 52 3f a2 19 36 3f dc a7 a0 3f 99 95 42 3f
       0.8204161 0.7113286 1.2551227 0.7600952
0002d0 0d 51 2d 3f 2d 19 48 3f b6 ae 63 3f 99 7e 2a 3f
       0.677018 0.78163415 0.8893846 0.6659942
0002e0 4d 51 1d 3f 90 4f 64 3f d6 e3 08 3f 16 4d 16 3f
       0.6145218 0.891839 0.5347265 0.58711374
0002f0 45 5f 73 3f 1b 5a 21 3f 36 02 74 3f f8 42 0c 3f
       0.95067245 0.63028115 0.95315874 0.54789686
000300 1d 36 81 3f 3c 0f 4e 3f 4d 38 f8 3e 32 4d 43 3f
       1.0094639 0.80491996 0.48480454 0.76289666
000310 d1 9d 20 3f 53 fa c9 3e 63 6a 3f 3f e0 ad 50 3f
       0.6274081 0.39448795 0.7477171 0.8151531
000320 ed f8 61 3f eb 22 0f 3f f4 05 2b 3f b4 75 23 3f
       0.88270456 0.55912656 0.6680596 0.63851476
000330 41 5b 69 3f 5d 96 38 3f 0d 9b 3d 3f db 85 1e 3f
       0.9115487 0.72104436 0.74064714 0.61923
000340 31 e9 89 3f 10 f9 f7 3e 80 d7 64 3f b5 36 55 3f
       1.0774289 0.48432207 0.89391327 0.832866
000350 3f 0d 24 3f 6d b7 1c 3f 9f 44 2d 3f e8 68 2e 3f
       0.6408271 0.61217386 0.6768283 0.68128824
000360 b8 f9 36 3f 1c 3b 8d 3f 21 3c 16 3f 0e 82 dc 3e
       0.7147479 1.1033664 0.586855 0.43067974
000370 8a ce 24 3f 1d f4 d7 3e 05 2c 6d 3f 39 32 73 3f
       0.64377654 0.4217843 0.92645293 0.9499851
000380 b6 53 50 3f 27 55 1c 3f ff cb 05 3f 6d 76 25 3f
       0.8137773 0.6106743 0.522644 0.6463383
000390 a4 03 1c 3f 79 4d 43 3f 5a de 85 3f 1a a1 35 3f
       0.60943055 0.7629009 1.0458481 0.70948946
0003a0 f8 3a 1c 3f 52 49 f6 3e 06 02 02 3f 6c 4d 46 3f
       0.6102748 0.48102814 0.5078434 0.77461886
0003b0 dd 83 39 3f f6 98 4f 3f 6f 0e 0b 3f 95 0d f5 3e
       0.7246683 0.81092775 0.543189 0.47861925
0003c0 d0 09 21 3f 5a b6 43 3f bf 5e 1f 3f 47 af 1f 3f
       0.629056 0.7645012 0.62253946 0.62376827
0003d0 b4 18 3e 3f 9f 07 17 3f c0 ef 6e 3f 00 13 25 3f
       0.74256444 0.58996004 0.9333458 0.64482117
0003e0 25 b3 69 3f 10 32 4a 3f ba 20 22 3f 5e 9e c0 3e
       0.9128898 0.7898264 0.63331187 0.37620825
0003f0 d0 30 42 3f 39 2b 97 3f 72 d0 27 3f 15 ae 38 3f
       0.7585573 1.1810066 0.6555244 0.7214063

fc.3.weight f4 [128, 256]
000000 a9 7d d9 bc aa b1 1f 3b 06 bc 53 3d 2a 48 3a bd
       -0.026549177 0.002436737 0.051692985 -0.045478977
000010 c1 09 22 3d 8c 39 21 bd bd fe 0b bc a3 0b 6b 3d
       0.039560083 -0.03936152 -0.008544621 0.057384145
000020 12 3e 0e 3d fc ba 03 3d 77 98 3e bd 3c 2c f1 bb
       0.034727164 0.032160744 -0.04653212 -0.0073600095
000030 b9 19 25 bd 6e bd d7 bc ee e2 0e 3d a6 fe cc 3b
       -0.040307734 -0.026335444 0.034884386 0.0062559424
000040 49 4c 8a 3d b9 ea 79 3c 8c de 27 3b 3c 93 85 bc
       0.067528315 0.015253716 0.0025614826 -0.016305558
000050 2e 6b 8d bc c2 7a e4 bb 6a 63 28 3d 0b 45 80 3d
       -0.017263021 -0.0069726417 0.041110434 0.06263169
000060 5a 32 71 bd 74 d5 ab bc 3d e2 6a 3d 0a 29 11 bd
       -0.05888591 -0.020975806 0.057344664 -0.03543953
000070 7e 70 6a 3d c8 ce 65 bc 8c ea 97 bc 7d 7e 19 3d
       0.057236187 -0.014026351 -0.018544458 0.037474144
000080 c2 09 bf 3d 94 0b b8 3c 2c 27 ea 3c f5 91 b6 bc
       0.09328033 0.022466458 0.028583132 -0.022286395
000090 44 80 08 3d fc 2d aa 3d e5 83 7f 3d c5 c9 cd bc
       0.03332545 0.08309552 0.062381644 -0.025120625
0000a0 b4 04 55 3d d7 6c 29 3c 84 69 84 3d fd b8 20 3d
       0.05200644 0.010340891 0.06465438 0.03923892
0000b0 17 41 09 3d ac b4 1b bd fa fb ff bc 27 41 f0 bc
       0.03350934 -0.0380141 -0.031248081 -0.029327942
0000c0 0e 80 25 bd 5f 73 81 3c 77 c8 2a bd cb eb 34 3c
       -0.040405326 0.015802084 -0.041695084 0.011042546
0000d0 b8 25 28 3c 8d 90 40 3d a5 6b 77 ba f0 77 a1 3c
       0.010262899 0.047012854 -0.00094383425 0.019710511
0000e0 62 b5 69 3c 52 ca c7 bc e0 64 31 3c e8 fb 44 3d
       0.014264436 -0.024388466 0.010827273 0.0480918
0000f0 dc b1 63 bc 0d 3f 4d 3b ea 4b 8a bc 55 f1 ac 3a
       -0.013897385 0.0031318099 -0.016881902 0.0013194481
000100 41 ad d3 3c f5 95 cc bc c5 98 ac 3c a1 22 03 bd
       0.02583945 -0.024973849 0.02106894 -0.032015447
000110 d1 f1 72 bc 13 28 ac bd b0 12 8a bd 82 d5 c4 3c
       -0.014828161 -0.08406081 -0.067418456 0.02402759
000120 f4 ad 17 bb 74 c9 88 3d 9e aa 87 bd 8c 9d 22 bd
       -0.0023144456 0.06679049 -0.066243395 -0.03970103
000130 69 d8 13 bc 13 9a 68 bd b3 23 0d 3d dd d8 4c bd
       -0.009023764 -0.05678756 0.034457874 -0.050011504
000140 5f 63 34 3d b7 97 cc 3c 7a b0 4d bc 1b 24 b8 3c
       0.04404008 0.024974687 -0.012554282 0.022478154
000150 71 ce 3d 3c c3 7a 01 bd 8d 74 24 bd fd 74 11 bc
       0.011584864 -0.031611215 -0.040150214 -0.00887799
000160 1c 2c 4a bd a9 e1 04 ba 8f a1 37 bc 42 58 0c bc
       -0.049358472 -0.00050690264 -0.011207952 -0.008565964
000170 5d 54 62 3d 2c 0c 7c bd e2 96 dc 3a 26 81 31 3d
       0.055256236 -0.061535046 0.0016829635 0.043336056
000180 6a 14 61 bd f3 64 37 bb c5 3b 1a 3d 37 5e e0 3c
       -0.05495111 -0.0027983754 0.037654657 0.027388675
000190 d0 71 0a bc 0d e9 31 bd ac b9 86 bd 72 70 09 3c
       -0.008449987 -0.043435145 -0.06578383 0.008388625
0001a0 aa 9f 34 3d 57 6d c5 bb f9 f2 89 bc 24 f5 09 bd
       0.04409758 -0.006024997 -0.016839491 -0.03368105
0001b0 9f e0 42 bc d3 f5 2f 3d b9 2f 48 bd 87 24 16 3d
       -0.011894374 0.042959046 -0.048873637 0.03665593
0001c0 ab 89 c4 3c 01 0a 5c 3c 01 c7 28 bd 95 ce 6c 3d
       0.023991426 0.0134301195 -0.04120541 0.0578142
0001d0 7c 44 02 bd a8 2a a8 3d 7f f4 30 bd 2e fd e2 3c
       -0.031803593 0.08211261 -0.04320192 0.027708616
0001e0 2d bf 18 bd 18 0c 2c 3b de e6 56 bc dc 80 04 bd
       -0.037291694 0.0026252326 -0.013116566 -0.032349452
0001f0 5b bf 95 bc dd 45 42 3a 8c 67 40 bd 29 17 2a 3d
       -0.018279722 0.0007410923 -0.04697375 0.041525993
000200 89 a4 47 3d 69 30 87 3d f0 48 45 3d 37 d2 d7 bc
       0.048740897 0.066010304 0.04816526 -0.026345355
000210 96 e3 8e b9 9e 6e 08 bd aa 51 4b bd 45 dc 18 3d
       -0.00027253915 -0.033308618 -0.049638428 0.03731944
000220 3d 9b 3e 3c fb e5 53 bd 51 69 73 bd 0b db 01 bd
       0.011633691 -0.051733 -0.05942661 -0.031703036
000230 95 a1 58 3d cb 15 72 3a d3 9a 11 3d e4 be a8 3b
       0.05288847 0.0009234815 0.035548043 0.005149709
000240 5b 76 94 bc 25 f0 7a 3d 59 de 40 bd eb c8 4c bd
       -0.018122843 0.061264176 -0.047087047 -0.049996298
000250 9d ff 0f 3d 66 2e 11 bd eb 40 cb bb 9a 23 27 bc
       0.03515588 -0.03544464 -0.006202807 -0.010201359
000260 b7 97 28 bd c1 8e f2 3a b5 9a 6e bd 18 a9 85 bd
       -0.04116031 0.0018505679 -0.05825301 -0.06526393
000270 ac 4d ba 3b e1 e4 3b bd 2a 4c 64 bc 4c 48 84 3a
       0.0056855287 -0.045872573 -0.013934175 0.0010092347
000280 a5 6d f1 3b 7b 72 40 bd 19 0c 76 3c cf b8 2c bd
       0.007367807 -0.046984177 0.015017533 -0.042168435
000290 79 1b 81 bc d7 6e f3 bb ab 0f 6b bc c8 d4 10 bd
       -0.01576017 -0.0074289846 -0.014346997 -0.035359174
0002a0 75 95 3f bd 3d 93 ae bc 10 38 01 bd 18 3a 4b 3d
       -0.046773393 -0.021310443 -0.031547606 0.04961595
0002b0 f5 69 de 3c 37 b3 1a 3d 6a e5 42 bd d3 07 1c bd
       0.027150134 0.03776857 -0.047582068 -0.0380934
0002c0 86 14 5b bd 07 f1 5b 3d 7a 1b d0 bc 86 84 47 3d
       -0.05348637 0.05369666 -0.025403727 0.04871037
0002d0 a4 26 85 bd ad 05 3e bd 4c 43 12 bd dd 3d df bc
       -0.06501511 -0.04639213 -0.03570871 -0.027251178
0002e0 57 09 1c bc cf 33 4d 3d 0a 29 a5 bb 39 51 6b bd
       -0.009523711 0.050098237 -0.0050402926 -0.057450507
0002f0 ce 22 f4 3c df e7 dc bb 5e 57 bf 3c 18 35 70 bc
       0.029801752 -0.0067415084 0.02335709 -0.014661096
000300 35 09 62 3d 2b 92 83 bc 1c 06 0c 3c e5 1e c1 bd
       0.05518456 -0.01606091 0.008546378 -0.09429721
000310 ba 17 e4 bc ef ac d5 3c ee 81 36 bd a4 0f 2b 3d
       -0.027843345 0.026083438 -0.044557504 0.041762963
000320 92 ae 91 bd 2b 53 32 3d 1d 93 93 3d 3b 39 ed bc
       -0.07113375 0.043536346 0.07205794 -0.028957954
000330 b8 a3 7e 3c 58 94 0f 3c f1 50 73 bd 1a ec f5 3a
       0.015541963 0.008763395 -0.059403364 0.001876238
000340 38 15 23 3d a2 ac 36 bd 44 e5 cf 3c a0 0a 01 3c
       0.039815158 -0.04459823 0.025377877 0.007876068
000350 a8 6f 1d bd 89 55 65 bd 1a 5d 13 bd 67 7c 7a 3d
       -0.03843656 -0.055989776 -0.03597746 0.061153796
000360 b4 c5 b3 bc fe 11 9b bc 37 2c 55 3d fb 79 91 3c
       -0.021944858 -0.018929478 0.05204412 0.01775836
000370 78 f1 5c bc 88 a8 52 3c 40 43 2a 3d 5f 4e 34 3d
       -0.013485305 0.012857564 0.04156804 0.044020053
000380 f8 50 ee 3c 69 d0 fc bc 3e a8 56 bb ea fd 84 3d
       0.029091343 -0.030861096 -0.0032754089 0.06493743
000390 3a 10 af bc f6 2a f7 bc 25 a0 be bd 22 44 74 bb
       -0.021370042 -0.030171853 -0.09307889 -0.0037272056
0003a0 59 d9 1e bb 26 b6 9a bd 93 ad 01 3d 0a bf 37 bc
       -0.0024238436 -0.07554273 0.031659674 -0.011214981
0003b0 1e 4f 56 bd 8a 01 22 bd ca fa 8a 3d a8 b7 34 bd
       -0.052321546 -0.03955225 0.067861155 -0.04412046
0003c0 2d 2b b2 3c 9e 65 34 3d 51 f4 30 3d 7d 79 cc bb
       0.021749103 0.044042222 0.04320175 -0.0062400685
0003d0 27 2e 07 bd 7e f0 a6 bc af 08 cd bd d0 d3 c5 bc
       -0.033003 -0.020378347 -0.10011422 -0.024148852
0003e0 2b 49 9b bc a7 c6 3f 3c f0 b2 3d 3c 4f 3d 84 bd
       -0.018955788 0.011705077 0.011578307 -0.06457006
0003f0 47 d9 29 3c b8 91 fd 3c 76 8e 05 bd fb 6d e8 3c
       0.010366744 0.030953273 -0.032606564 0.028372755
